saved_model_schema_version: 1
meta_graphs {
  meta_info_def {
    stripped_op_list {
      op {
        name: "Add"
        input_arg {
          name: "x"
          type_attr: "T"
        }
        input_arg {
          name: "y"
          type_attr: "T"
        }
        output_arg {
          name: "z"
          type_attr: "T"
        }
        attr {
          name: "T"
          type: "type"
          allowed_values {
            list {
              type: DT_HALF
              type: DT_FLOAT
              type: DT_DOUBLE
              type: DT_UINT8
              type: DT_INT8
              type: DT_INT16
              type: DT_INT32
              type: DT_INT64
              type: DT_COMPLEX64
              type: DT_COMPLEX128
              type: DT_STRING
            }
          }
        }
      }
      op {
        name: "AddN"
        input_arg {
          name: "inputs"
          type_attr: "T"
          number_attr: "N"
        }
        output_arg {
          name: "sum"
          type_attr: "T"
        }
        attr {
          name: "N"
          type: "int"
          has_minimum: true
          minimum: 1
        }
        attr {
          name: "T"
          type: "type"
          allowed_values {
            list {
              type: DT_FLOAT
              type: DT_DOUBLE
              type: DT_INT64
              type: DT_INT32
              type: DT_UINT8
              type: DT_UINT16
              type: DT_INT16
              type: DT_INT8
              type: DT_COMPLEX64
              type: DT_COMPLEX128
              type: DT_QINT8
              type: DT_QUINT8
              type: DT_QINT32
              type: DT_HALF
            }
          }
        }
        is_aggregate: true
        is_commutative: true
      }
      op {
        name: "ApplyAdam"
        input_arg {
          name: "var"
          type_attr: "T"
          is_ref: true
        }
        input_arg {
          name: "m"
          type_attr: "T"
          is_ref: true
        }
        input_arg {
          name: "v"
          type_attr: "T"
          is_ref: true
        }
        input_arg {
          name: "beta1_power"
          type_attr: "T"
        }
        input_arg {
          name: "beta2_power"
          type_attr: "T"
        }
        input_arg {
          name: "lr"
          type_attr: "T"
        }
        input_arg {
          name: "beta1"
          type_attr: "T"
        }
        input_arg {
          name: "beta2"
          type_attr: "T"
        }
        input_arg {
          name: "epsilon"
          type_attr: "T"
        }
        input_arg {
          name: "grad"
          type_attr: "T"
        }
        output_arg {
          name: "out"
          type_attr: "T"
          is_ref: true
        }
        attr {
          name: "T"
          type: "type"
          allowed_values {
            list {
              type: DT_FLOAT
              type: DT_DOUBLE
              type: DT_INT64
              type: DT_INT32
              type: DT_UINT8
              type: DT_UINT16
              type: DT_INT16
              type: DT_INT8
              type: DT_COMPLEX64
              type: DT_COMPLEX128
              type: DT_QINT8
              type: DT_QUINT8
              type: DT_QINT32
              type: DT_HALF
            }
          }
        }
        attr {
          name: "use_locking"
          type: "bool"
          default_value {
            b: false
          }
        }
        attr {
          name: "use_nesterov"
          type: "bool"
          default_value {
            b: false
          }
        }
      }
      op {
        name: "Assign"
        input_arg {
          name: "ref"
          type_attr: "T"
          is_ref: true
        }
        input_arg {
          name: "value"
          type_attr: "T"
        }
        output_arg {
          name: "output_ref"
          type_attr: "T"
          is_ref: true
        }
        attr {
          name: "T"
          type: "type"
        }
        attr {
          name: "validate_shape"
          type: "bool"
          default_value {
            b: true
          }
        }
        attr {
          name: "use_locking"
          type: "bool"
          default_value {
            b: true
          }
        }
        allows_uninitialized_input: true
      }
      op {
        name: "AssignAdd"
        input_arg {
          name: "ref"
          type_attr: "T"
          is_ref: true
        }
        input_arg {
          name: "value"
          type_attr: "T"
        }
        output_arg {
          name: "output_ref"
          type_attr: "T"
          is_ref: true
        }
        attr {
          name: "T"
          type: "type"
          allowed_values {
            list {
              type: DT_FLOAT
              type: DT_DOUBLE
              type: DT_INT64
              type: DT_INT32
              type: DT_UINT8
              type: DT_UINT16
              type: DT_INT16
              type: DT_INT8
              type: DT_COMPLEX64
              type: DT_COMPLEX128
              type: DT_QINT8
              type: DT_QUINT8
              type: DT_QINT32
              type: DT_HALF
            }
          }
        }
        attr {
          name: "use_locking"
          type: "bool"
          default_value {
            b: false
          }
        }
      }
      op {
        name: "AssignSub"
        input_arg {
          name: "ref"
          type_attr: "T"
          is_ref: true
        }
        input_arg {
          name: "value"
          type_attr: "T"
        }
        output_arg {
          name: "output_ref"
          type_attr: "T"
          is_ref: true
        }
        attr {
          name: "T"
          type: "type"
          allowed_values {
            list {
              type: DT_FLOAT
              type: DT_DOUBLE
              type: DT_INT64
              type: DT_INT32
              type: DT_UINT8
              type: DT_UINT16
              type: DT_INT16
              type: DT_INT8
              type: DT_COMPLEX64
              type: DT_COMPLEX128
              type: DT_QINT8
              type: DT_QUINT8
              type: DT_QINT32
              type: DT_HALF
            }
          }
        }
        attr {
          name: "use_locking"
          type: "bool"
          default_value {
            b: false
          }
        }
      }
      op {
        name: "BroadcastGradientArgs"
        input_arg {
          name: "s0"
          type_attr: "T"
        }
        input_arg {
          name: "s1"
          type_attr: "T"
        }
        output_arg {
          name: "r0"
          type_attr: "T"
        }
        output_arg {
          name: "r1"
          type_attr: "T"
        }
        attr {
          name: "T"
          type: "type"
          default_value {
            type: DT_INT32
          }
          allowed_values {
            list {
              type: DT_INT32
              type: DT_INT64
            }
          }
        }
      }
      op {
        name: "Cast"
        input_arg {
          name: "x"
          type_attr: "SrcT"
        }
        output_arg {
          name: "y"
          type_attr: "DstT"
        }
        attr {
          name: "SrcT"
          type: "type"
        }
        attr {
          name: "DstT"
          type: "type"
        }
      }
      op {
        name: "ConcatV2"
        input_arg {
          name: "values"
          type_attr: "T"
          number_attr: "N"
        }
        input_arg {
          name: "axis"
          type_attr: "Tidx"
        }
        output_arg {
          name: "output"
          type_attr: "T"
        }
        attr {
          name: "N"
          type: "int"
          has_minimum: true
          minimum: 2
        }
        attr {
          name: "T"
          type: "type"
        }
        attr {
          name: "Tidx"
          type: "type"
          default_value {
            type: DT_INT32
          }
          allowed_values {
            list {
              type: DT_INT32
              type: DT_INT64
            }
          }
        }
      }
      op {
        name: "Const"
        output_arg {
          name: "output"
          type_attr: "dtype"
        }
        attr {
          name: "value"
          type: "tensor"
        }
        attr {
          name: "dtype"
          type: "type"
        }
      }
      op {
        name: "Conv2D"
        input_arg {
          name: "input"
          type_attr: "T"
        }
        input_arg {
          name: "filter"
          type_attr: "T"
        }
        output_arg {
          name: "output"
          type_attr: "T"
        }
        attr {
          name: "T"
          type: "type"
          allowed_values {
            list {
              type: DT_HALF
              type: DT_FLOAT
            }
          }
        }
        attr {
          name: "strides"
          type: "list(int)"
        }
        attr {
          name: "use_cudnn_on_gpu"
          type: "bool"
          default_value {
            b: true
          }
        }
        attr {
          name: "padding"
          type: "string"
          allowed_values {
            list {
              s: "SAME"
              s: "VALID"
            }
          }
        }
        attr {
          name: "data_format"
          type: "string"
          default_value {
            s: "NHWC"
          }
          allowed_values {
            list {
              s: "NHWC"
              s: "NCHW"
            }
          }
        }
      }
      op {
        name: "Conv2DBackpropFilter"
        input_arg {
          name: "input"
          type_attr: "T"
        }
        input_arg {
          name: "filter_sizes"
          type: DT_INT32
        }
        input_arg {
          name: "out_backprop"
          type_attr: "T"
        }
        output_arg {
          name: "output"
          type_attr: "T"
        }
        attr {
          name: "T"
          type: "type"
          allowed_values {
            list {
              type: DT_HALF
              type: DT_FLOAT
            }
          }
        }
        attr {
          name: "strides"
          type: "list(int)"
        }
        attr {
          name: "use_cudnn_on_gpu"
          type: "bool"
          default_value {
            b: true
          }
        }
        attr {
          name: "padding"
          type: "string"
          allowed_values {
            list {
              s: "SAME"
              s: "VALID"
            }
          }
        }
        attr {
          name: "data_format"
          type: "string"
          default_value {
            s: "NHWC"
          }
          allowed_values {
            list {
              s: "NHWC"
              s: "NCHW"
            }
          }
        }
      }
      op {
        name: "Conv2DBackpropInput"
        input_arg {
          name: "input_sizes"
          type: DT_INT32
        }
        input_arg {
          name: "filter"
          type_attr: "T"
        }
        input_arg {
          name: "out_backprop"
          type_attr: "T"
        }
        output_arg {
          name: "output"
          type_attr: "T"
        }
        attr {
          name: "T"
          type: "type"
          allowed_values {
            list {
              type: DT_HALF
              type: DT_FLOAT
            }
          }
        }
        attr {
          name: "strides"
          type: "list(int)"
        }
        attr {
          name: "use_cudnn_on_gpu"
          type: "bool"
          default_value {
            b: true
          }
        }
        attr {
          name: "padding"
          type: "string"
          allowed_values {
            list {
              s: "SAME"
              s: "VALID"
            }
          }
        }
        attr {
          name: "data_format"
          type: "string"
          default_value {
            s: "NHWC"
          }
          allowed_values {
            list {
              s: "NHWC"
              s: "NCHW"
            }
          }
        }
      }
      op {
        name: "ExpandDims"
        input_arg {
          name: "input"
          type_attr: "T"
        }
        input_arg {
          name: "dim"
          type_attr: "Tdim"
        }
        output_arg {
          name: "output"
          type_attr: "T"
        }
        attr {
          name: "T"
          type: "type"
        }
        attr {
          name: "Tdim"
          type: "type"
          default_value {
            type: DT_INT32
          }
          allowed_values {
            list {
              type: DT_INT32
              type: DT_INT64
            }
          }
        }
      }
      op {
        name: "Fill"
        input_arg {
          name: "dims"
          type: DT_INT32
        }
        input_arg {
          name: "value"
          type_attr: "T"
        }
        output_arg {
          name: "output"
          type_attr: "T"
        }
        attr {
          name: "T"
          type: "type"
        }
      }
      op {
        name: "FloorDiv"
        input_arg {
          name: "x"
          type_attr: "T"
        }
        input_arg {
          name: "y"
          type_attr: "T"
        }
        output_arg {
          name: "z"
          type_attr: "T"
        }
        attr {
          name: "T"
          type: "type"
          allowed_values {
            list {
              type: DT_HALF
              type: DT_FLOAT
              type: DT_DOUBLE
              type: DT_UINT8
              type: DT_INT8
              type: DT_UINT16
              type: DT_INT16
              type: DT_INT32
              type: DT_INT64
              type: DT_COMPLEX64
              type: DT_COMPLEX128
            }
          }
        }
      }
      op {
        name: "FusedBatchNorm"
        input_arg {
          name: "x"
          type_attr: "T"
        }
        input_arg {
          name: "scale"
          type_attr: "T"
        }
        input_arg {
          name: "offset"
          type_attr: "T"
        }
        input_arg {
          name: "mean"
          type_attr: "T"
        }
        input_arg {
          name: "variance"
          type_attr: "T"
        }
        output_arg {
          name: "y"
          type_attr: "T"
        }
        output_arg {
          name: "batch_mean"
          type_attr: "T"
        }
        output_arg {
          name: "batch_variance"
          type_attr: "T"
        }
        output_arg {
          name: "reserve_space_1"
          type_attr: "T"
        }
        output_arg {
          name: "reserve_space_2"
          type_attr: "T"
        }
        attr {
          name: "T"
          type: "type"
          allowed_values {
            list {
              type: DT_FLOAT
            }
          }
        }
        attr {
          name: "epsilon"
          type: "float"
          default_value {
            f: 9.999999747378752e-05
          }
        }
        attr {
          name: "data_format"
          type: "string"
          default_value {
            s: "NHWC"
          }
        }
        attr {
          name: "is_training"
          type: "bool"
          default_value {
            b: true
          }
        }
      }
      op {
        name: "FusedBatchNormGrad"
        input_arg {
          name: "y_backprop"
          type_attr: "T"
        }
        input_arg {
          name: "x"
          type_attr: "T"
        }
        input_arg {
          name: "scale"
          type_attr: "T"
        }
        input_arg {
          name: "reserve_space_1"
          type_attr: "T"
        }
        input_arg {
          name: "reserve_space_2"
          type_attr: "T"
        }
        output_arg {
          name: "x_backprop"
          type_attr: "T"
        }
        output_arg {
          name: "scale_backprop"
          type_attr: "T"
        }
        output_arg {
          name: "offset_backprop"
          type_attr: "T"
        }
        output_arg {
          name: "reserve_space_3"
          type_attr: "T"
        }
        output_arg {
          name: "reserve_space_4"
          type_attr: "T"
        }
        attr {
          name: "T"
          type: "type"
          allowed_values {
            list {
              type: DT_FLOAT
            }
          }
        }
        attr {
          name: "epsilon"
          type: "float"
          default_value {
            f: 9.999999747378752e-05
          }
        }
        attr {
          name: "data_format"
          type: "string"
          default_value {
            s: "NHWC"
          }
        }
        attr {
          name: "is_training"
          type: "bool"
          default_value {
            b: true
          }
        }
      }
      op {
        name: "Identity"
        input_arg {
          name: "input"
          type_attr: "T"
        }
        output_arg {
          name: "output"
          type_attr: "T"
        }
        attr {
          name: "T"
          type: "type"
        }
      }
      op {
        name: "MatMul"
        input_arg {
          name: "a"
          type_attr: "T"
        }
        input_arg {
          name: "b"
          type_attr: "T"
        }
        output_arg {
          name: "product"
          type_attr: "T"
        }
        attr {
          name: "transpose_a"
          type: "bool"
          default_value {
            b: false
          }
        }
        attr {
          name: "transpose_b"
          type: "bool"
          default_value {
            b: false
          }
        }
        attr {
          name: "T"
          type: "type"
          allowed_values {
            list {
              type: DT_HALF
              type: DT_FLOAT
              type: DT_DOUBLE
              type: DT_INT32
              type: DT_COMPLEX64
              type: DT_COMPLEX128
            }
          }
        }
      }
      op {
        name: "Maximum"
        input_arg {
          name: "x"
          type_attr: "T"
        }
        input_arg {
          name: "y"
          type_attr: "T"
        }
        output_arg {
          name: "z"
          type_attr: "T"
        }
        attr {
          name: "T"
          type: "type"
          allowed_values {
            list {
              type: DT_HALF
              type: DT_FLOAT
              type: DT_DOUBLE
              type: DT_INT32
              type: DT_INT64
            }
          }
        }
        is_commutative: true
      }
      op {
        name: "Mean"
        input_arg {
          name: "input"
          type_attr: "T"
        }
        input_arg {
          name: "reduction_indices"
          type_attr: "Tidx"
        }
        output_arg {
          name: "output"
          type_attr: "T"
        }
        attr {
          name: "keep_dims"
          type: "bool"
          default_value {
            b: false
          }
        }
        attr {
          name: "T"
          type: "type"
          allowed_values {
            list {
              type: DT_FLOAT
              type: DT_DOUBLE
              type: DT_INT64
              type: DT_INT32
              type: DT_UINT8
              type: DT_UINT16
              type: DT_INT16
              type: DT_INT8
              type: DT_COMPLEX64
              type: DT_COMPLEX128
              type: DT_QINT8
              type: DT_QUINT8
              type: DT_QINT32
              type: DT_HALF
            }
          }
        }
        attr {
          name: "Tidx"
          type: "type"
          default_value {
            type: DT_INT32
          }
          allowed_values {
            list {
              type: DT_INT32
              type: DT_INT64
            }
          }
        }
      }
      op {
        name: "Merge"
        input_arg {
          name: "inputs"
          type_attr: "T"
          number_attr: "N"
        }
        output_arg {
          name: "output"
          type_attr: "T"
        }
        output_arg {
          name: "value_index"
          type: DT_INT32
        }
        attr {
          name: "T"
          type: "type"
        }
        attr {
          name: "N"
          type: "int"
          has_minimum: true
          minimum: 1
        }
      }
      op {
        name: "MergeV2Checkpoints"
        input_arg {
          name: "checkpoint_prefixes"
          type: DT_STRING
        }
        input_arg {
          name: "destination_prefix"
          type: DT_STRING
        }
        attr {
          name: "delete_old_dirs"
          type: "bool"
          default_value {
            b: true
          }
        }
      }
      op {
        name: "Mul"
        input_arg {
          name: "x"
          type_attr: "T"
        }
        input_arg {
          name: "y"
          type_attr: "T"
        }
        output_arg {
          name: "z"
          type_attr: "T"
        }
        attr {
          name: "T"
          type: "type"
          allowed_values {
            list {
              type: DT_HALF
              type: DT_FLOAT
              type: DT_DOUBLE
              type: DT_UINT8
              type: DT_INT8
              type: DT_UINT16
              type: DT_INT16
              type: DT_INT32
              type: DT_INT64
              type: DT_COMPLEX64
              type: DT_COMPLEX128
            }
          }
        }
        is_commutative: true
      }
      op {
        name: "Neg"
        input_arg {
          name: "x"
          type_attr: "T"
        }
        output_arg {
          name: "y"
          type_attr: "T"
        }
        attr {
          name: "T"
          type: "type"
          allowed_values {
            list {
              type: DT_HALF
              type: DT_FLOAT
              type: DT_DOUBLE
              type: DT_INT32
              type: DT_INT64
              type: DT_COMPLEX64
              type: DT_COMPLEX128
            }
          }
        }
      }
      op {
        name: "NoOp"
      }
      op {
        name: "Pack"
        input_arg {
          name: "values"
          type_attr: "T"
          number_attr: "N"
        }
        output_arg {
          name: "output"
          type_attr: "T"
        }
        attr {
          name: "N"
          type: "int"
          has_minimum: true
          minimum: 1
        }
        attr {
          name: "T"
          type: "type"
        }
        attr {
          name: "axis"
          type: "int"
          default_value {
            i: 0
          }
        }
      }
      op {
        name: "Placeholder"
        output_arg {
          name: "output"
          type_attr: "dtype"
        }
        attr {
          name: "dtype"
          type: "type"
        }
        attr {
          name: "shape"
          type: "shape"
          default_value {
            shape {
              unknown_rank: true
            }
          }
        }
      }
      op {
        name: "PlaceholderWithDefault"
        input_arg {
          name: "input"
          type_attr: "dtype"
        }
        output_arg {
          name: "output"
          type_attr: "dtype"
        }
        attr {
          name: "dtype"
          type: "type"
        }
        attr {
          name: "shape"
          type: "shape"
        }
      }
      op {
        name: "Prod"
        input_arg {
          name: "input"
          type_attr: "T"
        }
        input_arg {
          name: "reduction_indices"
          type_attr: "Tidx"
        }
        output_arg {
          name: "output"
          type_attr: "T"
        }
        attr {
          name: "keep_dims"
          type: "bool"
          default_value {
            b: false
          }
        }
        attr {
          name: "T"
          type: "type"
          allowed_values {
            list {
              type: DT_FLOAT
              type: DT_DOUBLE
              type: DT_INT64
              type: DT_INT32
              type: DT_UINT8
              type: DT_UINT16
              type: DT_INT16
              type: DT_INT8
              type: DT_COMPLEX64
              type: DT_COMPLEX128
              type: DT_QINT8
              type: DT_QUINT8
              type: DT_QINT32
              type: DT_HALF
            }
          }
        }
        attr {
          name: "Tidx"
          type: "type"
          default_value {
            type: DT_INT32
          }
          allowed_values {
            list {
              type: DT_INT32
              type: DT_INT64
            }
          }
        }
      }
      op {
        name: "RandomUniform"
        input_arg {
          name: "shape"
          type_attr: "T"
        }
        output_arg {
          name: "output"
          type_attr: "dtype"
        }
        attr {
          name: "seed"
          type: "int"
          default_value {
            i: 0
          }
        }
        attr {
          name: "seed2"
          type: "int"
          default_value {
            i: 0
          }
        }
        attr {
          name: "dtype"
          type: "type"
          allowed_values {
            list {
              type: DT_HALF
              type: DT_FLOAT
              type: DT_DOUBLE
            }
          }
        }
        attr {
          name: "T"
          type: "type"
          allowed_values {
            list {
              type: DT_INT32
              type: DT_INT64
            }
          }
        }
        is_stateful: true
      }
      op {
        name: "RealDiv"
        input_arg {
          name: "x"
          type_attr: "T"
        }
        input_arg {
          name: "y"
          type_attr: "T"
        }
        output_arg {
          name: "z"
          type_attr: "T"
        }
        attr {
          name: "T"
          type: "type"
          allowed_values {
            list {
              type: DT_HALF
              type: DT_FLOAT
              type: DT_DOUBLE
              type: DT_UINT8
              type: DT_INT8
              type: DT_UINT16
              type: DT_INT16
              type: DT_INT32
              type: DT_INT64
              type: DT_COMPLEX64
              type: DT_COMPLEX128
            }
          }
        }
      }
      op {
        name: "RefSwitch"
        input_arg {
          name: "data"
          type_attr: "T"
          is_ref: true
        }
        input_arg {
          name: "pred"
          type: DT_BOOL
        }
        output_arg {
          name: "output_false"
          type_attr: "T"
          is_ref: true
        }
        output_arg {
          name: "output_true"
          type_attr: "T"
          is_ref: true
        }
        attr {
          name: "T"
          type: "type"
        }
        allows_uninitialized_input: true
      }
      op {
        name: "Relu"
        input_arg {
          name: "features"
          type_attr: "T"
        }
        output_arg {
          name: "activations"
          type_attr: "T"
        }
        attr {
          name: "T"
          type: "type"
          allowed_values {
            list {
              type: DT_FLOAT
              type: DT_DOUBLE
              type: DT_INT32
              type: DT_INT64
              type: DT_UINT8
              type: DT_INT16
              type: DT_INT8
              type: DT_UINT16
              type: DT_HALF
            }
          }
        }
      }
      op {
        name: "ReluGrad"
        input_arg {
          name: "gradients"
          type_attr: "T"
        }
        input_arg {
          name: "features"
          type_attr: "T"
        }
        output_arg {
          name: "backprops"
          type_attr: "T"
        }
        attr {
          name: "T"
          type: "type"
          allowed_values {
            list {
              type: DT_FLOAT
              type: DT_DOUBLE
              type: DT_INT32
              type: DT_INT64
              type: DT_UINT8
              type: DT_INT16
              type: DT_INT8
              type: DT_UINT16
              type: DT_HALF
            }
          }
        }
      }
      op {
        name: "Reshape"
        input_arg {
          name: "tensor"
          type_attr: "T"
        }
        input_arg {
          name: "shape"
          type_attr: "Tshape"
        }
        output_arg {
          name: "output"
          type_attr: "T"
        }
        attr {
          name: "T"
          type: "type"
        }
        attr {
          name: "Tshape"
          type: "type"
          default_value {
            type: DT_INT32
          }
          allowed_values {
            list {
              type: DT_INT32
              type: DT_INT64
            }
          }
        }
      }
      op {
        name: "RestoreV2"
        input_arg {
          name: "prefix"
          type: DT_STRING
        }
        input_arg {
          name: "tensor_names"
          type: DT_STRING
        }
        input_arg {
          name: "shape_and_slices"
          type: DT_STRING
        }
        output_arg {
          name: "tensors"
          type_list_attr: "dtypes"
        }
        attr {
          name: "dtypes"
          type: "list(type)"
          has_minimum: true
          minimum: 1
        }
      }
      op {
        name: "SaveV2"
        input_arg {
          name: "prefix"
          type: DT_STRING
        }
        input_arg {
          name: "tensor_names"
          type: DT_STRING
        }
        input_arg {
          name: "shape_and_slices"
          type: DT_STRING
        }
        input_arg {
          name: "tensors"
          type_list_attr: "dtypes"
        }
        attr {
          name: "dtypes"
          type: "list(type)"
          has_minimum: true
          minimum: 1
        }
      }
      op {
        name: "Shape"
        input_arg {
          name: "input"
          type_attr: "T"
        }
        output_arg {
          name: "output"
          type_attr: "out_type"
        }
        attr {
          name: "T"
          type: "type"
        }
        attr {
          name: "out_type"
          type: "type"
          default_value {
            type: DT_INT32
          }
          allowed_values {
            list {
              type: DT_INT32
              type: DT_INT64
            }
          }
        }
      }
      op {
        name: "ShardedFilename"
        input_arg {
          name: "basename"
          type: DT_STRING
        }
        input_arg {
          name: "shard"
          type: DT_INT32
        }
        input_arg {
          name: "num_shards"
          type: DT_INT32
        }
        output_arg {
          name: "filename"
          type: DT_STRING
        }
      }
      op {
        name: "Slice"
        input_arg {
          name: "input"
          type_attr: "T"
        }
        input_arg {
          name: "begin"
          type_attr: "Index"
        }
        input_arg {
          name: "size"
          type_attr: "Index"
        }
        output_arg {
          name: "output"
          type_attr: "T"
        }
        attr {
          name: "T"
          type: "type"
        }
        attr {
          name: "Index"
          type: "type"
          allowed_values {
            list {
              type: DT_INT32
              type: DT_INT64
            }
          }
        }
      }
      op {
        name: "SquaredDifference"
        input_arg {
          name: "x"
          type_attr: "T"
        }
        input_arg {
          name: "y"
          type_attr: "T"
        }
        output_arg {
          name: "z"
          type_attr: "T"
        }
        attr {
          name: "T"
          type: "type"
          allowed_values {
            list {
              type: DT_HALF
              type: DT_FLOAT
              type: DT_DOUBLE
              type: DT_INT32
              type: DT_INT64
              type: DT_COMPLEX64
              type: DT_COMPLEX128
            }
          }
        }
        is_commutative: true
      }
      op {
        name: "StridedSlice"
        input_arg {
          name: "input"
          type_attr: "T"
        }
        input_arg {
          name: "begin"
          type_attr: "Index"
        }
        input_arg {
          name: "end"
          type_attr: "Index"
        }
        input_arg {
          name: "strides"
          type_attr: "Index"
        }
        output_arg {
          name: "output"
          type_attr: "T"
        }
        attr {
          name: "T"
          type: "type"
        }
        attr {
          name: "Index"
          type: "type"
          allowed_values {
            list {
              type: DT_INT32
              type: DT_INT64
            }
          }
        }
        attr {
          name: "begin_mask"
          type: "int"
          default_value {
            i: 0
          }
        }
        attr {
          name: "end_mask"
          type: "int"
          default_value {
            i: 0
          }
        }
        attr {
          name: "ellipsis_mask"
          type: "int"
          default_value {
            i: 0
          }
        }
        attr {
          name: "new_axis_mask"
          type: "int"
          default_value {
            i: 0
          }
        }
        attr {
          name: "shrink_axis_mask"
          type: "int"
          default_value {
            i: 0
          }
        }
      }
      op {
        name: "StringJoin"
        input_arg {
          name: "inputs"
          type: DT_STRING
          number_attr: "N"
        }
        output_arg {
          name: "output"
          type: DT_STRING
        }
        attr {
          name: "N"
          type: "int"
          has_minimum: true
          minimum: 1
        }
        attr {
          name: "separator"
          type: "string"
          default_value {
            s: ""
          }
        }
      }
      op {
        name: "Sub"
        input_arg {
          name: "x"
          type_attr: "T"
        }
        input_arg {
          name: "y"
          type_attr: "T"
        }
        output_arg {
          name: "z"
          type_attr: "T"
        }
        attr {
          name: "T"
          type: "type"
          allowed_values {
            list {
              type: DT_HALF
              type: DT_FLOAT
              type: DT_DOUBLE
              type: DT_INT32
              type: DT_INT64
              type: DT_COMPLEX64
              type: DT_COMPLEX128
            }
          }
        }
      }
      op {
        name: "Sum"
        input_arg {
          name: "input"
          type_attr: "T"
        }
        input_arg {
          name: "reduction_indices"
          type_attr: "Tidx"
        }
        output_arg {
          name: "output"
          type_attr: "T"
        }
        attr {
          name: "keep_dims"
          type: "bool"
          default_value {
            b: false
          }
        }
        attr {
          name: "T"
          type: "type"
          allowed_values {
            list {
              type: DT_FLOAT
              type: DT_DOUBLE
              type: DT_INT64
              type: DT_INT32
              type: DT_UINT8
              type: DT_UINT16
              type: DT_INT16
              type: DT_INT8
              type: DT_COMPLEX64
              type: DT_COMPLEX128
              type: DT_QINT8
              type: DT_QUINT8
              type: DT_QINT32
              type: DT_HALF
            }
          }
        }
        attr {
          name: "Tidx"
          type: "type"
          default_value {
            type: DT_INT32
          }
          allowed_values {
            list {
              type: DT_INT32
              type: DT_INT64
            }
          }
        }
      }
      op {
        name: "Switch"
        input_arg {
          name: "data"
          type_attr: "T"
        }
        input_arg {
          name: "pred"
          type: DT_BOOL
        }
        output_arg {
          name: "output_false"
          type_attr: "T"
        }
        output_arg {
          name: "output_true"
          type_attr: "T"
        }
        attr {
          name: "T"
          type: "type"
        }
      }
      op {
        name: "Tile"
        input_arg {
          name: "input"
          type_attr: "T"
        }
        input_arg {
          name: "multiples"
          type_attr: "Tmultiples"
        }
        output_arg {
          name: "output"
          type_attr: "T"
        }
        attr {
          name: "T"
          type: "type"
        }
        attr {
          name: "Tmultiples"
          type: "type"
          default_value {
            type: DT_INT32
          }
          allowed_values {
            list {
              type: DT_INT32
              type: DT_INT64
            }
          }
        }
      }
      op {
        name: "VariableV2"
        output_arg {
          name: "ref"
          type_attr: "dtype"
          is_ref: true
        }
        attr {
          name: "shape"
          type: "shape"
        }
        attr {
          name: "dtype"
          type: "type"
        }
        attr {
          name: "container"
          type: "string"
          default_value {
            s: ""
          }
        }
        attr {
          name: "shared_name"
          type: "string"
          default_value {
            s: ""
          }
        }
        is_stateful: true
      }
    }
    tags: "small_trainable_model"
    tensorflow_version: "1.2.1"
    tensorflow_git_version: "b\'unknown\'"
  }
  graph_def {
    node {
      name: "placeholder/images"
      op: "Placeholder"
      attr {
        key: "_output_shapes"
        value {
          list {
            shape {
              dim {
                size: -1
              }
              dim {
                size: 64
              }
              dim {
                size: 64
              }
              dim {
                size: 1
              }
            }
          }
        }
      }
      attr {
        key: "dtype"
        value {
          type: DT_FLOAT
        }
      }
      attr {
        key: "shape"
        value {
          shape {
            dim {
              size: -1
            }
            dim {
              size: 64
            }
            dim {
              size: 64
            }
            dim {
              size: 1
            }
          }
        }
      }
    }
    node {
      name: "placeholder/is_training/input"
      op: "Const"
      attr {
        key: "_output_shapes"
        value {
          list {
            shape {
            }
          }
        }
      }
      attr {
        key: "dtype"
        value {
          type: DT_BOOL
        }
      }
      attr {
        key: "value"
        value {
          tensor {
            dtype: DT_BOOL
            tensor_shape {
            }
            bool_val: false
          }
        }
      }
    }
    node {
      name: "placeholder/is_training"
      op: "PlaceholderWithDefault"
      input: "placeholder/is_training/input"
      attr {
        key: "_output_shapes"
        value {
          list {
            shape {
            }
          }
        }
      }
      attr {
        key: "dtype"
        value {
          type: DT_BOOL
        }
      }
      attr {
        key: "shape"
        value {
          shape {
          }
        }
      }
    }
    node {
      name: "identity/is_training"
      op: "Identity"
      input: "placeholder/is_training"
      attr {
        key: "T"
        value {
          type: DT_BOOL
        }
      }
      attr {
        key: "_output_shapes"
        value {
          list {
            shape {
            }
          }
        }
      }
    }
    node {
      name: "conv32/weights/Initializer/random_uniform/shape"
      op: "Const"
      attr {
        key: "_class"
        value {
          list {
            s: "loc:@conv32/weights"
          }
        }
      }
      attr {
        key: "_output_shapes"
        value {
          list {
            shape {
              dim {
                size: 4
              }
            }
          }
        }
      }
      attr {
        key: "dtype"
        value {
          type: DT_INT32
        }
      }
      attr {
        key: "value"
        value {
          tensor {
            dtype: DT_INT32
            tensor_shape {
              dim {
                size: 4
              }
            }
            tensor_content: "\003\000\000\000\003\000\000\000\001\000\000\000\004\000\000\000"
          }
        }
      }
    }
    node {
      name: "conv32/weights/Initializer/random_uniform/min"
      op: "Const"
      attr {
        key: "_class"
        value {
          list {
            s: "loc:@conv32/weights"
          }
        }
      }
      attr {
        key: "_output_shapes"
        value {
          list {
            shape {
            }
          }
        }
      }
      attr {
        key: "dtype"
        value {
          type: DT_FLOAT
        }
      }
      attr {
        key: "value"
        value {
          tensor {
            dtype: DT_FLOAT
            tensor_shape {
            }
            float_val: -0.3651483654975891
          }
        }
      }
    }
    node {
      name: "conv32/weights/Initializer/random_uniform/max"
      op: "Const"
      attr {
        key: "_class"
        value {
          list {
            s: "loc:@conv32/weights"
          }
        }
      }
      attr {
        key: "_output_shapes"
        value {
          list {
            shape {
            }
          }
        }
      }
      attr {
        key: "dtype"
        value {
          type: DT_FLOAT
        }
      }
      attr {
        key: "value"
        value {
          tensor {
            dtype: DT_FLOAT
            tensor_shape {
            }
            float_val: 0.3651483654975891
          }
        }
      }
    }
    node {
      name: "conv32/weights/Initializer/random_uniform/RandomUniform"
      op: "RandomUniform"
      input: "conv32/weights/Initializer/random_uniform/shape"
      attr {
        key: "T"
        value {
          type: DT_INT32
        }
      }
      attr {
        key: "_class"
        value {
          list {
            s: "loc:@conv32/weights"
          }
        }
      }
      attr {
        key: "_output_shapes"
        value {
          list {
            shape {
              dim {
                size: 3
              }
              dim {
                size: 3
              }
              dim {
                size: 1
              }
              dim {
                size: 4
              }
            }
          }
        }
      }
      attr {
        key: "dtype"
        value {
          type: DT_FLOAT
        }
      }
      attr {
        key: "seed"
        value {
          i: 0
        }
      }
      attr {
        key: "seed2"
        value {
          i: 7
        }
      }
    }
    node {
      name: "conv32/weights/Initializer/random_uniform/sub"
      op: "Sub"
      input: "conv32/weights/Initializer/random_uniform/max"
      input: "conv32/weights/Initializer/random_uniform/min"
      attr {
        key: "T"
        value {
          type: DT_FLOAT
        }
      }
      attr {
        key: "_class"
        value {
          list {
            s: "loc:@conv32/weights"
          }
        }
      }
      attr {
        key: "_output_shapes"
        value {
          list {
            shape {
            }
          }
        }
      }
    }
    node {
      name: "conv32/weights/Initializer/random_uniform/mul"
      op: "Mul"
      input: "conv32/weights/Initializer/random_uniform/RandomUniform"
      input: "conv32/weights/Initializer/random_uniform/sub"
      attr {
        key: "T"
        value {
          type: DT_FLOAT
        }
      }
      attr {
        key: "_class"
        value {
          list {
            s: "loc:@conv32/weights"
          }
        }
      }
      attr {
        key: "_output_shapes"
        value {
          list {
            shape {
              dim {
                size: 3
              }
              dim {
                size: 3
              }
              dim {
                size: 1
              }
              dim {
                size: 4
              }
            }
          }
        }
      }
    }
    node {
      name: "conv32/weights/Initializer/random_uniform"
      op: "Add"
      input: "conv32/weights/Initializer/random_uniform/mul"
      input: "conv32/weights/Initializer/random_uniform/min"
      attr {
        key: "T"
        value {
          type: DT_FLOAT
        }
      }
      attr {
        key: "_class"
        value {
          list {
            s: "loc:@conv32/weights"
          }
        }
      }
      attr {
        key: "_output_shapes"
        value {
          list {
            shape {
              dim {
                size: 3
              }
              dim {
                size: 3
              }
              dim {
                size: 1
              }
              dim {
                size: 4
              }
            }
          }
        }
      }
    }
    node {
      name: "conv32/weights"
      op: "VariableV2"
      attr {
        key: "_class"
        value {
          list {
            s: "loc:@conv32/weights"
          }
        }
      }
      attr {
        key: "_output_shapes"
        value {
          list {
            shape {
              dim {
                size: 3
              }
              dim {
                size: 3
              }
              dim {
                size: 1
              }
              dim {
                size: 4
              }
            }
          }
        }
      }
      attr {
        key: "container"
        value {
          s: ""
        }
      }
      attr {
        key: "dtype"
        value {
          type: DT_FLOAT
        }
      }
      attr {
        key: "shape"
        value {
          shape {
            dim {
              size: 3
            }
            dim {
              size: 3
            }
            dim {
              size: 1
            }
            dim {
              size: 4
            }
          }
        }
      }
      attr {
        key: "shared_name"
        value {
          s: ""
        }
      }
    }
    node {
      name: "conv32/weights/Assign"
      op: "Assign"
      input: "conv32/weights"
      input: "conv32/weights/Initializer/random_uniform"
      attr {
        key: "T"
        value {
          type: DT_FLOAT
        }
      }
      attr {
        key: "_class"
        value {
          list {
            s: "loc:@conv32/weights"
          }
        }
      }
      attr {
        key: "_output_shapes"
        value {
          list {
            shape {
              dim {
                size: 3
              }
              dim {
                size: 3
              }
              dim {
                size: 1
              }
              dim {
                size: 4
              }
            }
          }
        }
      }
      attr {
        key: "use_locking"
        value {
          b: true
        }
      }
      attr {
        key: "validate_shape"
        value {
          b: true
        }
      }
    }
    node {
      name: "conv32/weights/read"
      op: "Identity"
      input: "conv32/weights"
      attr {
        key: "T"
        value {
          type: DT_FLOAT
        }
      }
      attr {
        key: "_class"
        value {
          list {
            s: "loc:@conv32/weights"
          }
        }
      }
      attr {
        key: "_output_shapes"
        value {
          list {
            shape {
              dim {
                size: 3
              }
              dim {
                size: 3
              }
              dim {
                size: 1
              }
              dim {
                size: 4
              }
            }
          }
        }
      }
    }
    node {
      name: "conv32/convolution/Shape"
      op: "Const"
      attr {
        key: "_output_shapes"
        value {
          list {
            shape {
              dim {
                size: 4
              }
            }
          }
        }
      }
      attr {
        key: "dtype"
        value {
          type: DT_INT32
        }
      }
      attr {
        key: "value"
        value {
          tensor {
            dtype: DT_INT32
            tensor_shape {
              dim {
                size: 4
              }
            }
            tensor_content: "\003\000\000\000\003\000\000\000\001\000\000\000\004\000\000\000"
          }
        }
      }
    }
    node {
      name: "conv32/convolution/dilation_rate"
      op: "Const"
      attr {
        key: "_output_shapes"
        value {
          list {
            shape {
              dim {
                size: 2
              }
            }
          }
        }
      }
      attr {
        key: "dtype"
        value {
          type: DT_INT32
        }
      }
      attr {
        key: "value"
        value {
          tensor {
            dtype: DT_INT32
            tensor_shape {
              dim {
                size: 2
              }
            }
            tensor_content: "\001\000\000\000\001\000\000\000"
          }
        }
      }
    }
    node {
      name: "conv32/convolution"
      op: "Conv2D"
      input: "placeholder/images"
      input: "conv32/weights/read"
      attr {
        key: "T"
        value {
          type: DT_FLOAT
        }
      }
      attr {
        key: "_output_shapes"
        value {
          list {
            shape {
              dim {
                size: -1
              }
              dim {
                size: 32
              }
              dim {
                size: 32
              }
              dim {
                size: 4
              }
            }
          }
        }
      }
      attr {
        key: "data_format"
        value {
          s: "NHWC"
        }
      }
      attr {
        key: "padding"
        value {
          s: "SAME"
        }
      }
      attr {
        key: "strides"
        value {
          list {
            i: 1
            i: 2
            i: 2
            i: 1
          }
        }
      }
      attr {
        key: "use_cudnn_on_gpu"
        value {
          b: true
        }
      }
    }
    node {
      name: "conv32/BatchNorm/beta/Initializer/zeros"
      op: "Const"
      attr {
        key: "_class"
        value {
          list {
            s: "loc:@conv32/BatchNorm/beta"
          }
        }
      }
      attr {
        key: "_output_shapes"
        value {
          list {
            shape {
              dim {
                size: 4
              }
            }
          }
        }
      }
      attr {
        key: "dtype"
        value {
          type: DT_FLOAT
        }
      }
      attr {
        key: "value"
        value {
          tensor {
            dtype: DT_FLOAT
            tensor_shape {
              dim {
                size: 4
              }
            }
            float_val: 0.0
          }
        }
      }
    }
    node {
      name: "conv32/BatchNorm/beta"
      op: "VariableV2"
      attr {
        key: "_class"
        value {
          list {
            s: "loc:@conv32/BatchNorm/beta"
          }
        }
      }
      attr {
        key: "_output_shapes"
        value {
          list {
            shape {
              dim {
                size: 4
              }
            }
          }
        }
      }
      attr {
        key: "container"
        value {
          s: ""
        }
      }
      attr {
        key: "dtype"
        value {
          type: DT_FLOAT
        }
      }
      attr {
        key: "shape"
        value {
          shape {
            dim {
              size: 4
            }
          }
        }
      }
      attr {
        key: "shared_name"
        value {
          s: ""
        }
      }
    }
    node {
      name: "conv32/BatchNorm/beta/Assign"
      op: "Assign"
      input: "conv32/BatchNorm/beta"
      input: "conv32/BatchNorm/beta/Initializer/zeros"
      attr {
        key: "T"
        value {
          type: DT_FLOAT
        }
      }
      attr {
        key: "_class"
        value {
          list {
            s: "loc:@conv32/BatchNorm/beta"
          }
        }
      }
      attr {
        key: "_output_shapes"
        value {
          list {
            shape {
              dim {
                size: 4
              }
            }
          }
        }
      }
      attr {
        key: "use_locking"
        value {
          b: true
        }
      }
      attr {
        key: "validate_shape"
        value {
          b: true
        }
      }
    }
    node {
      name: "conv32/BatchNorm/beta/read"
      op: "Identity"
      input: "conv32/BatchNorm/beta"
      attr {
        key: "T"
        value {
          type: DT_FLOAT
        }
      }
      attr {
        key: "_class"
        value {
          list {
            s: "loc:@conv32/BatchNorm/beta"
          }
        }
      }
      attr {
        key: "_output_shapes"
        value {
          list {
            shape {
              dim {
                size: 4
              }
            }
          }
        }
      }
    }
    node {
      name: "conv32/BatchNorm/gamma/Initializer/ones"
      op: "Const"
      attr {
        key: "_class"
        value {
          list {
            s: "loc:@conv32/BatchNorm/gamma"
          }
        }
      }
      attr {
        key: "_output_shapes"
        value {
          list {
            shape {
              dim {
                size: 4
              }
            }
          }
        }
      }
      attr {
        key: "dtype"
        value {
          type: DT_FLOAT
        }
      }
      attr {
        key: "value"
        value {
          tensor {
            dtype: DT_FLOAT
            tensor_shape {
              dim {
                size: 4
              }
            }
            float_val: 1.0
          }
        }
      }
    }
    node {
      name: "conv32/BatchNorm/gamma"
      op: "VariableV2"
      attr {
        key: "_class"
        value {
          list {
            s: "loc:@conv32/BatchNorm/gamma"
          }
        }
      }
      attr {
        key: "_output_shapes"
        value {
          list {
            shape {
              dim {
                size: 4
              }
            }
          }
        }
      }
      attr {
        key: "container"
        value {
          s: ""
        }
      }
      attr {
        key: "dtype"
        value {
          type: DT_FLOAT
        }
      }
      attr {
        key: "shape"
        value {
          shape {
            dim {
              size: 4
            }
          }
        }
      }
      attr {
        key: "shared_name"
        value {
          s: ""
        }
      }
    }
    node {
      name: "conv32/BatchNorm/gamma/Assign"
      op: "Assign"
      input: "conv32/BatchNorm/gamma"
      input: "conv32/BatchNorm/gamma/Initializer/ones"
      attr {
        key: "T"
        value {
          type: DT_FLOAT
        }
      }
      attr {
        key: "_class"
        value {
          list {
            s: "loc:@conv32/BatchNorm/gamma"
          }
        }
      }
      attr {
        key: "_output_shapes"
        value {
          list {
            shape {
              dim {
                size: 4
              }
            }
          }
        }
      }
      attr {
        key: "use_locking"
        value {
          b: true
        }
      }
      attr {
        key: "validate_shape"
        value {
          b: true
        }
      }
    }
    node {
      name: "conv32/BatchNorm/gamma/read"
      op: "Identity"
      input: "conv32/BatchNorm/gamma"
      attr {
        key: "T"
        value {
          type: DT_FLOAT
        }
      }
      attr {
        key: "_class"
        value {
          list {
            s: "loc:@conv32/BatchNorm/gamma"
          }
        }
      }
      attr {
        key: "_output_shapes"
        value {
          list {
            shape {
              dim {
                size: 4
              }
            }
          }
        }
      }
    }
    node {
      name: "conv32/BatchNorm/moving_mean/Initializer/zeros"
      op: "Const"
      attr {
        key: "_class"
        value {
          list {
            s: "loc:@conv32/BatchNorm/moving_mean"
          }
        }
      }
      attr {
        key: "_output_shapes"
        value {
          list {
            shape {
              dim {
                size: 4
              }
            }
          }
        }
      }
      attr {
        key: "dtype"
        value {
          type: DT_FLOAT
        }
      }
      attr {
        key: "value"
        value {
          tensor {
            dtype: DT_FLOAT
            tensor_shape {
              dim {
                size: 4
              }
            }
            float_val: 0.0
          }
        }
      }
    }
    node {
      name: "conv32/BatchNorm/moving_mean"
      op: "VariableV2"
      attr {
        key: "_class"
        value {
          list {
            s: "loc:@conv32/BatchNorm/moving_mean"
          }
        }
      }
      attr {
        key: "_output_shapes"
        value {
          list {
            shape {
              dim {
                size: 4
              }
            }
          }
        }
      }
      attr {
        key: "container"
        value {
          s: ""
        }
      }
      attr {
        key: "dtype"
        value {
          type: DT_FLOAT
        }
      }
      attr {
        key: "shape"
        value {
          shape {
            dim {
              size: 4
            }
          }
        }
      }
      attr {
        key: "shared_name"
        value {
          s: ""
        }
      }
    }
    node {
      name: "conv32/BatchNorm/moving_mean/Assign"
      op: "Assign"
      input: "conv32/BatchNorm/moving_mean"
      input: "conv32/BatchNorm/moving_mean/Initializer/zeros"
      attr {
        key: "T"
        value {
          type: DT_FLOAT
        }
      }
      attr {
        key: "_class"
        value {
          list {
            s: "loc:@conv32/BatchNorm/moving_mean"
          }
        }
      }
      attr {
        key: "_output_shapes"
        value {
          list {
            shape {
              dim {
                size: 4
              }
            }
          }
        }
      }
      attr {
        key: "use_locking"
        value {
          b: true
        }
      }
      attr {
        key: "validate_shape"
        value {
          b: true
        }
      }
    }
    node {
      name: "conv32/BatchNorm/moving_mean/read"
      op: "Identity"
      input: "conv32/BatchNorm/moving_mean"
      attr {
        key: "T"
        value {
          type: DT_FLOAT
        }
      }
      attr {
        key: "_class"
        value {
          list {
            s: "loc:@conv32/BatchNorm/moving_mean"
          }
        }
      }
      attr {
        key: "_output_shapes"
        value {
          list {
            shape {
              dim {
                size: 4
              }
            }
          }
        }
      }
    }
    node {
      name: "conv32/BatchNorm/moving_variance/Initializer/ones"
      op: "Const"
      attr {
        key: "_class"
        value {
          list {
            s: "loc:@conv32/BatchNorm/moving_variance"
          }
        }
      }
      attr {
        key: "_output_shapes"
        value {
          list {
            shape {
              dim {
                size: 4
              }
            }
          }
        }
      }
      attr {
        key: "dtype"
        value {
          type: DT_FLOAT
        }
      }
      attr {
        key: "value"
        value {
          tensor {
            dtype: DT_FLOAT
            tensor_shape {
              dim {
                size: 4
              }
            }
            float_val: 1.0
          }
        }
      }
    }
    node {
      name: "conv32/BatchNorm/moving_variance"
      op: "VariableV2"
      attr {
        key: "_class"
        value {
          list {
            s: "loc:@conv32/BatchNorm/moving_variance"
          }
        }
      }
      attr {
        key: "_output_shapes"
        value {
          list {
            shape {
              dim {
                size: 4
              }
            }
          }
        }
      }
      attr {
        key: "container"
        value {
          s: ""
        }
      }
      attr {
        key: "dtype"
        value {
          type: DT_FLOAT
        }
      }
      attr {
        key: "shape"
        value {
          shape {
            dim {
              size: 4
            }
          }
        }
      }
      attr {
        key: "shared_name"
        value {
          s: ""
        }
      }
    }
    node {
      name: "conv32/BatchNorm/moving_variance/Assign"
      op: "Assign"
      input: "conv32/BatchNorm/moving_variance"
      input: "conv32/BatchNorm/moving_variance/Initializer/ones"
      attr {
        key: "T"
        value {
          type: DT_FLOAT
        }
      }
      attr {
        key: "_class"
        value {
          list {
            s: "loc:@conv32/BatchNorm/moving_variance"
          }
        }
      }
      attr {
        key: "_output_shapes"
        value {
          list {
            shape {
              dim {
                size: 4
              }
            }
          }
        }
      }
      attr {
        key: "use_locking"
        value {
          b: true
        }
      }
      attr {
        key: "validate_shape"
        value {
          b: true
        }
      }
    }
    node {
      name: "conv32/BatchNorm/moving_variance/read"
      op: "Identity"
      input: "conv32/BatchNorm/moving_variance"
      attr {
        key: "T"
        value {
          type: DT_FLOAT
        }
      }
      attr {
        key: "_class"
        value {
          list {
            s: "loc:@conv32/BatchNorm/moving_variance"
          }
        }
      }
      attr {
        key: "_output_shapes"
        value {
          list {
            shape {
              dim {
                size: 4
              }
            }
          }
        }
      }
    }
    node {
      name: "conv32/BatchNorm/cond/Switch"
      op: "Switch"
      input: "placeholder/is_training"
      input: "placeholder/is_training"
      attr {
        key: "T"
        value {
          type: DT_BOOL
        }
      }
      attr {
        key: "_output_shapes"
        value {
          list {
            shape {
            }
            shape {
            }
          }
        }
      }
    }
    node {
      name: "conv32/BatchNorm/cond/switch_t"
      op: "Identity"
      input: "conv32/BatchNorm/cond/Switch:1"
      attr {
        key: "T"
        value {
          type: DT_BOOL
        }
      }
      attr {
        key: "_output_shapes"
        value {
          list {
            shape {
            }
          }
        }
      }
    }
    node {
      name: "conv32/BatchNorm/cond/switch_f"
      op: "Identity"
      input: "conv32/BatchNorm/cond/Switch"
      attr {
        key: "T"
        value {
          type: DT_BOOL
        }
      }
      attr {
        key: "_output_shapes"
        value {
          list {
            shape {
            }
          }
        }
      }
    }
    node {
      name: "conv32/BatchNorm/cond/pred_id"
      op: "Identity"
      input: "placeholder/is_training"
      attr {
        key: "T"
        value {
          type: DT_BOOL
        }
      }
      attr {
        key: "_output_shapes"
        value {
          list {
            shape {
            }
          }
        }
      }
    }
    node {
      name: "conv32/BatchNorm/cond/Const"
      op: "Const"
      input: "^conv32/BatchNorm/cond/switch_t"
      attr {
        key: "_output_shapes"
        value {
          list {
            shape {
              dim {
              }
            }
          }
        }
      }
      attr {
        key: "dtype"
        value {
          type: DT_FLOAT
        }
      }
      attr {
        key: "value"
        value {
          tensor {
            dtype: DT_FLOAT
            tensor_shape {
              dim {
              }
            }
          }
        }
      }
    }
    node {
      name: "conv32/BatchNorm/cond/Const_1"
      op: "Const"
      input: "^conv32/BatchNorm/cond/switch_t"
      attr {
        key: "_output_shapes"
        value {
          list {
            shape {
              dim {
              }
            }
          }
        }
      }
      attr {
        key: "dtype"
        value {
          type: DT_FLOAT
        }
      }
      attr {
        key: "value"
        value {
          tensor {
            dtype: DT_FLOAT
            tensor_shape {
              dim {
              }
            }
          }
        }
      }
    }
    node {
      name: "conv32/BatchNorm/cond/FusedBatchNorm/Switch"
      op: "Switch"
      input: "conv32/convolution"
      input: "conv32/BatchNorm/cond/pred_id"
      attr {
        key: "T"
        value {
          type: DT_FLOAT
        }
      }
      attr {
        key: "_class"
        value {
          list {
            s: "loc:@conv32/convolution"
          }
        }
      }
      attr {
        key: "_output_shapes"
        value {
          list {
            shape {
              dim {
                size: -1
              }
              dim {
                size: 32
              }
              dim {
                size: 32
              }
              dim {
                size: 4
              }
            }
            shape {
              dim {
                size: -1
              }
              dim {
                size: 32
              }
              dim {
                size: 32
              }
              dim {
                size: 4
              }
            }
          }
        }
      }
    }
    node {
      name: "conv32/BatchNorm/cond/FusedBatchNorm/Switch_1"
      op: "Switch"
      input: "conv32/BatchNorm/gamma/read"
      input: "conv32/BatchNorm/cond/pred_id"
      attr {
        key: "T"
        value {
          type: DT_FLOAT
        }
      }
      attr {
        key: "_class"
        value {
          list {
            s: "loc:@conv32/BatchNorm/gamma"
          }
        }
      }
      attr {
        key: "_output_shapes"
        value {
          list {
            shape {
              dim {
                size: 4
              }
            }
            shape {
              dim {
                size: 4
              }
            }
          }
        }
      }
    }
    node {
      name: "conv32/BatchNorm/cond/FusedBatchNorm/Switch_2"
      op: "Switch"
      input: "conv32/BatchNorm/beta/read"
      input: "conv32/BatchNorm/cond/pred_id"
      attr {
        key: "T"
        value {
          type: DT_FLOAT
        }
      }
      attr {
        key: "_class"
        value {
          list {
            s: "loc:@conv32/BatchNorm/beta"
          }
        }
      }
      attr {
        key: "_output_shapes"
        value {
          list {
            shape {
              dim {
                size: 4
              }
            }
            shape {
              dim {
                size: 4
              }
            }
          }
        }
      }
    }
    node {
      name: "conv32/BatchNorm/cond/FusedBatchNorm"
      op: "FusedBatchNorm"
      input: "conv32/BatchNorm/cond/FusedBatchNorm/Switch:1"
      input: "conv32/BatchNorm/cond/FusedBatchNorm/Switch_1:1"
      input: "conv32/BatchNorm/cond/FusedBatchNorm/Switch_2:1"
      input: "conv32/BatchNorm/cond/Const"
      input: "conv32/BatchNorm/cond/Const_1"
      attr {
        key: "T"
        value {
          type: DT_FLOAT
        }
      }
      attr {
        key: "_output_shapes"
        value {
          list {
            shape {
              dim {
                size: -1
              }
              dim {
                size: 32
              }
              dim {
                size: 32
              }
              dim {
                size: 4
              }
            }
            shape {
              dim {
                size: 4
              }
            }
            shape {
              dim {
                size: 4
              }
            }
            shape {
              dim {
                size: 4
              }
            }
            shape {
              dim {
                size: 4
              }
            }
          }
        }
      }
      attr {
        key: "data_format"
        value {
          s: "NHWC"
        }
      }
      attr {
        key: "epsilon"
        value {
          f: 0.0010000000474974513
        }
      }
      attr {
        key: "is_training"
        value {
          b: true
        }
      }
    }
    node {
      name: "conv32/BatchNorm/cond/FusedBatchNorm_1/Switch"
      op: "Switch"
      input: "conv32/convolution"
      input: "conv32/BatchNorm/cond/pred_id"
      attr {
        key: "T"
        value {
          type: DT_FLOAT
        }
      }
      attr {
        key: "_class"
        value {
          list {
            s: "loc:@conv32/convolution"
          }
        }
      }
      attr {
        key: "_output_shapes"
        value {
          list {
            shape {
              dim {
                size: -1
              }
              dim {
                size: 32
              }
              dim {
                size: 32
              }
              dim {
                size: 4
              }
            }
            shape {
              dim {
                size: -1
              }
              dim {
                size: 32
              }
              dim {
                size: 32
              }
              dim {
                size: 4
              }
            }
          }
        }
      }
    }
    node {
      name: "conv32/BatchNorm/cond/FusedBatchNorm_1/Switch_1"
      op: "Switch"
      input: "conv32/BatchNorm/gamma/read"
      input: "conv32/BatchNorm/cond/pred_id"
      attr {
        key: "T"
        value {
          type: DT_FLOAT
        }
      }
      attr {
        key: "_class"
        value {
          list {
            s: "loc:@conv32/BatchNorm/gamma"
          }
        }
      }
      attr {
        key: "_output_shapes"
        value {
          list {
            shape {
              dim {
                size: 4
              }
            }
            shape {
              dim {
                size: 4
              }
            }
          }
        }
      }
    }
    node {
      name: "conv32/BatchNorm/cond/FusedBatchNorm_1/Switch_2"
      op: "Switch"
      input: "conv32/BatchNorm/beta/read"
      input: "conv32/BatchNorm/cond/pred_id"
      attr {
        key: "T"
        value {
          type: DT_FLOAT
        }
      }
      attr {
        key: "_class"
        value {
          list {
            s: "loc:@conv32/BatchNorm/beta"
          }
        }
      }
      attr {
        key: "_output_shapes"
        value {
          list {
            shape {
              dim {
                size: 4
              }
            }
            shape {
              dim {
                size: 4
              }
            }
          }
        }
      }
    }
    node {
      name: "conv32/BatchNorm/cond/FusedBatchNorm_1/Switch_3"
      op: "Switch"
      input: "conv32/BatchNorm/moving_mean/read"
      input: "conv32/BatchNorm/cond/pred_id"
      attr {
        key: "T"
        value {
          type: DT_FLOAT
        }
      }
      attr {
        key: "_class"
        value {
          list {
            s: "loc:@conv32/BatchNorm/moving_mean"
          }
        }
      }
      attr {
        key: "_output_shapes"
        value {
          list {
            shape {
              dim {
                size: 4
              }
            }
            shape {
              dim {
                size: 4
              }
            }
          }
        }
      }
    }
    node {
      name: "conv32/BatchNorm/cond/FusedBatchNorm_1/Switch_4"
      op: "Switch"
      input: "conv32/BatchNorm/moving_variance/read"
      input: "conv32/BatchNorm/cond/pred_id"
      attr {
        key: "T"
        value {
          type: DT_FLOAT
        }
      }
      attr {
        key: "_class"
        value {
          list {
            s: "loc:@conv32/BatchNorm/moving_variance"
          }
        }
      }
      attr {
        key: "_output_shapes"
        value {
          list {
            shape {
              dim {
                size: 4
              }
            }
            shape {
              dim {
                size: 4
              }
            }
          }
        }
      }
    }
    node {
      name: "conv32/BatchNorm/cond/FusedBatchNorm_1"
      op: "FusedBatchNorm"
      input: "conv32/BatchNorm/cond/FusedBatchNorm_1/Switch"
      input: "conv32/BatchNorm/cond/FusedBatchNorm_1/Switch_1"
      input: "conv32/BatchNorm/cond/FusedBatchNorm_1/Switch_2"
      input: "conv32/BatchNorm/cond/FusedBatchNorm_1/Switch_3"
      input: "conv32/BatchNorm/cond/FusedBatchNorm_1/Switch_4"
      attr {
        key: "T"
        value {
          type: DT_FLOAT
        }
      }
      attr {
        key: "_output_shapes"
        value {
          list {
            shape {
              dim {
                size: -1
              }
              dim {
                size: 32
              }
              dim {
                size: 32
              }
              dim {
                size: 4
              }
            }
            shape {
              dim {
                size: 4
              }
            }
            shape {
              dim {
                size: 4
              }
            }
            shape {
              dim {
                size: 4
              }
            }
            shape {
              dim {
                size: 4
              }
            }
          }
        }
      }
      attr {
        key: "data_format"
        value {
          s: "NHWC"
        }
      }
      attr {
        key: "epsilon"
        value {
          f: 0.0010000000474974513
        }
      }
      attr {
        key: "is_training"
        value {
          b: false
        }
      }
    }
    node {
      name: "conv32/BatchNorm/cond/Merge"
      op: "Merge"
      input: "conv32/BatchNorm/cond/FusedBatchNorm_1"
      input: "conv32/BatchNorm/cond/FusedBatchNorm"
      attr {
        key: "N"
        value {
          i: 2
        }
      }
      attr {
        key: "T"
        value {
          type: DT_FLOAT
        }
      }
      attr {
        key: "_output_shapes"
        value {
          list {
            shape {
              dim {
                size: -1
              }
              dim {
                size: 32
              }
              dim {
                size: 32
              }
              dim {
                size: 4
              }
            }
            shape {
            }
          }
        }
      }
    }
    node {
      name: "conv32/BatchNorm/cond/Merge_1"
      op: "Merge"
      input: "conv32/BatchNorm/cond/FusedBatchNorm_1:1"
      input: "conv32/BatchNorm/cond/FusedBatchNorm:1"
      attr {
        key: "N"
        value {
          i: 2
        }
      }
      attr {
        key: "T"
        value {
          type: DT_FLOAT
        }
      }
      attr {
        key: "_output_shapes"
        value {
          list {
            shape {
              dim {
                size: 4
              }
            }
            shape {
            }
          }
        }
      }
    }
    node {
      name: "conv32/BatchNorm/cond/Merge_2"
      op: "Merge"
      input: "conv32/BatchNorm/cond/FusedBatchNorm_1:2"
      input: "conv32/BatchNorm/cond/FusedBatchNorm:2"
      attr {
        key: "N"
        value {
          i: 2
        }
      }
      attr {
        key: "T"
        value {
          type: DT_FLOAT
        }
      }
      attr {
        key: "_output_shapes"
        value {
          list {
            shape {
              dim {
                size: 4
              }
            }
            shape {
            }
          }
        }
      }
    }
    node {
      name: "conv32/BatchNorm/cond_1/Switch"
      op: "Switch"
      input: "placeholder/is_training"
      input: "placeholder/is_training"
      attr {
        key: "T"
        value {
          type: DT_BOOL
        }
      }
      attr {
        key: "_output_shapes"
        value {
          list {
            shape {
            }
            shape {
            }
          }
        }
      }
    }
    node {
      name: "conv32/BatchNorm/cond_1/switch_t"
      op: "Identity"
      input: "conv32/BatchNorm/cond_1/Switch:1"
      attr {
        key: "T"
        value {
          type: DT_BOOL
        }
      }
      attr {
        key: "_output_shapes"
        value {
          list {
            shape {
            }
          }
        }
      }
    }
    node {
      name: "conv32/BatchNorm/cond_1/switch_f"
      op: "Identity"
      input: "conv32/BatchNorm/cond_1/Switch"
      attr {
        key: "T"
        value {
          type: DT_BOOL
        }
      }
      attr {
        key: "_output_shapes"
        value {
          list {
            shape {
            }
          }
        }
      }
    }
    node {
      name: "conv32/BatchNorm/cond_1/pred_id"
      op: "Identity"
      input: "placeholder/is_training"
      attr {
        key: "T"
        value {
          type: DT_BOOL
        }
      }
      attr {
        key: "_output_shapes"
        value {
          list {
            shape {
            }
          }
        }
      }
    }
    node {
      name: "conv32/BatchNorm/cond_1/AssignMovingAvg/decay"
      op: "Const"
      input: "^conv32/BatchNorm/cond_1/switch_t"
      attr {
        key: "_class"
        value {
          list {
            s: "loc:@conv32/BatchNorm/moving_mean"
          }
        }
      }
      attr {
        key: "_output_shapes"
        value {
          list {
            shape {
            }
          }
        }
      }
      attr {
        key: "dtype"
        value {
          type: DT_FLOAT
        }
      }
      attr {
        key: "value"
        value {
          tensor {
            dtype: DT_FLOAT
            tensor_shape {
            }
            float_val: 0.009999999776482582
          }
        }
      }
    }
    node {
      name: "conv32/BatchNorm/cond_1/AssignMovingAvg/sub/Switch"
      op: "Switch"
      input: "conv32/BatchNorm/moving_mean/read"
      input: "conv32/BatchNorm/cond_1/pred_id"
      attr {
        key: "T"
        value {
          type: DT_FLOAT
        }
      }
      attr {
        key: "_class"
        value {
          list {
            s: "loc:@conv32/BatchNorm/moving_mean"
          }
        }
      }
      attr {
        key: "_output_shapes"
        value {
          list {
            shape {
              dim {
                size: 4
              }
            }
            shape {
              dim {
                size: 4
              }
            }
          }
        }
      }
    }
    node {
      name: "conv32/BatchNorm/cond_1/AssignMovingAvg/sub/Switch_1"
      op: "Switch"
      input: "conv32/BatchNorm/cond/Merge_1"
      input: "conv32/BatchNorm/cond_1/pred_id"
      attr {
        key: "T"
        value {
          type: DT_FLOAT
        }
      }
      attr {
        key: "_class"
        value {
          list {
            s: "loc:@conv32/BatchNorm/cond/Merge_1"
          }
        }
      }
      attr {
        key: "_output_shapes"
        value {
          list {
            shape {
              dim {
                size: 4
              }
            }
            shape {
              dim {
                size: 4
              }
            }
          }
        }
      }
    }
    node {
      name: "conv32/BatchNorm/cond_1/AssignMovingAvg/sub"
      op: "Sub"
      input: "conv32/BatchNorm/cond_1/AssignMovingAvg/sub/Switch:1"
      input: "conv32/BatchNorm/cond_1/AssignMovingAvg/sub/Switch_1:1"
      attr {
        key: "T"
        value {
          type: DT_FLOAT
        }
      }
      attr {
        key: "_class"
        value {
          list {
            s: "loc:@conv32/BatchNorm/moving_mean"
          }
        }
      }
      attr {
        key: "_output_shapes"
        value {
          list {
            shape {
              dim {
                size: 4
              }
            }
          }
        }
      }
    }
    node {
      name: "conv32/BatchNorm/cond_1/AssignMovingAvg/mul"
      op: "Mul"
      input: "conv32/BatchNorm/cond_1/AssignMovingAvg/sub"
      input: "conv32/BatchNorm/cond_1/AssignMovingAvg/decay"
      attr {
        key: "T"
        value {
          type: DT_FLOAT
        }
      }
      attr {
        key: "_class"
        value {
          list {
            s: "loc:@conv32/BatchNorm/moving_mean"
          }
        }
      }
      attr {
        key: "_output_shapes"
        value {
          list {
            shape {
              dim {
                size: 4
              }
            }
          }
        }
      }
    }
    node {
      name: "conv32/BatchNorm/cond_1/AssignMovingAvg/Switch"
      op: "RefSwitch"
      input: "conv32/BatchNorm/moving_mean"
      input: "conv32/BatchNorm/cond_1/pred_id"
      attr {
        key: "T"
        value {
          type: DT_FLOAT
        }
      }
      attr {
        key: "_class"
        value {
          list {
            s: "loc:@conv32/BatchNorm/moving_mean"
          }
        }
      }
      attr {
        key: "_output_shapes"
        value {
          list {
            shape {
              dim {
                size: 4
              }
            }
            shape {
              dim {
                size: 4
              }
            }
          }
        }
      }
    }
    node {
      name: "conv32/BatchNorm/cond_1/AssignMovingAvg"
      op: "AssignSub"
      input: "conv32/BatchNorm/cond_1/AssignMovingAvg/Switch:1"
      input: "conv32/BatchNorm/cond_1/AssignMovingAvg/mul"
      attr {
        key: "T"
        value {
          type: DT_FLOAT
        }
      }
      attr {
        key: "_class"
        value {
          list {
            s: "loc:@conv32/BatchNorm/moving_mean"
          }
        }
      }
      attr {
        key: "_output_shapes"
        value {
          list {
            shape {
              dim {
                size: 4
              }
            }
          }
        }
      }
      attr {
        key: "use_locking"
        value {
          b: false
        }
      }
    }
    node {
      name: "conv32/BatchNorm/cond_1/AssignMovingAvg_1/decay"
      op: "Const"
      input: "^conv32/BatchNorm/cond_1/switch_t"
      attr {
        key: "_class"
        value {
          list {
            s: "loc:@conv32/BatchNorm/moving_variance"
          }
        }
      }
      attr {
        key: "_output_shapes"
        value {
          list {
            shape {
            }
          }
        }
      }
      attr {
        key: "dtype"
        value {
          type: DT_FLOAT
        }
      }
      attr {
        key: "value"
        value {
          tensor {
            dtype: DT_FLOAT
            tensor_shape {
            }
            float_val: 0.009999999776482582
          }
        }
      }
    }
    node {
      name: "conv32/BatchNorm/cond_1/AssignMovingAvg_1/sub/Switch"
      op: "Switch"
      input: "conv32/BatchNorm/moving_variance/read"
      input: "conv32/BatchNorm/cond_1/pred_id"
      attr {
        key: "T"
        value {
          type: DT_FLOAT
        }
      }
      attr {
        key: "_class"
        value {
          list {
            s: "loc:@conv32/BatchNorm/moving_variance"
          }
        }
      }
      attr {
        key: "_output_shapes"
        value {
          list {
            shape {
              dim {
                size: 4
              }
            }
            shape {
              dim {
                size: 4
              }
            }
          }
        }
      }
    }
    node {
      name: "conv32/BatchNorm/cond_1/AssignMovingAvg_1/sub/Switch_1"
      op: "Switch"
      input: "conv32/BatchNorm/cond/Merge_2"
      input: "conv32/BatchNorm/cond_1/pred_id"
      attr {
        key: "T"
        value {
          type: DT_FLOAT
        }
      }
      attr {
        key: "_class"
        value {
          list {
            s: "loc:@conv32/BatchNorm/cond/Merge_2"
          }
        }
      }
      attr {
        key: "_output_shapes"
        value {
          list {
            shape {
              dim {
                size: 4
              }
            }
            shape {
              dim {
                size: 4
              }
            }
          }
        }
      }
    }
    node {
      name: "conv32/BatchNorm/cond_1/AssignMovingAvg_1/sub"
      op: "Sub"
      input: "conv32/BatchNorm/cond_1/AssignMovingAvg_1/sub/Switch:1"
      input: "conv32/BatchNorm/cond_1/AssignMovingAvg_1/sub/Switch_1:1"
      attr {
        key: "T"
        value {
          type: DT_FLOAT
        }
      }
      attr {
        key: "_class"
        value {
          list {
            s: "loc:@conv32/BatchNorm/moving_variance"
          }
        }
      }
      attr {
        key: "_output_shapes"
        value {
          list {
            shape {
              dim {
                size: 4
              }
            }
          }
        }
      }
    }
    node {
      name: "conv32/BatchNorm/cond_1/AssignMovingAvg_1/mul"
      op: "Mul"
      input: "conv32/BatchNorm/cond_1/AssignMovingAvg_1/sub"
      input: "conv32/BatchNorm/cond_1/AssignMovingAvg_1/decay"
      attr {
        key: "T"
        value {
          type: DT_FLOAT
        }
      }
      attr {
        key: "_class"
        value {
          list {
            s: "loc:@conv32/BatchNorm/moving_variance"
          }
        }
      }
      attr {
        key: "_output_shapes"
        value {
          list {
            shape {
              dim {
                size: 4
              }
            }
          }
        }
      }
    }
    node {
      name: "conv32/BatchNorm/cond_1/AssignMovingAvg_1/Switch"
      op: "RefSwitch"
      input: "conv32/BatchNorm/moving_variance"
      input: "conv32/BatchNorm/cond_1/pred_id"
      attr {
        key: "T"
        value {
          type: DT_FLOAT
        }
      }
      attr {
        key: "_class"
        value {
          list {
            s: "loc:@conv32/BatchNorm/moving_variance"
          }
        }
      }
      attr {
        key: "_output_shapes"
        value {
          list {
            shape {
              dim {
                size: 4
              }
            }
            shape {
              dim {
                size: 4
              }
            }
          }
        }
      }
    }
    node {
      name: "conv32/BatchNorm/cond_1/AssignMovingAvg_1"
      op: "AssignSub"
      input: "conv32/BatchNorm/cond_1/AssignMovingAvg_1/Switch:1"
      input: "conv32/BatchNorm/cond_1/AssignMovingAvg_1/mul"
      attr {
        key: "T"
        value {
          type: DT_FLOAT
        }
      }
      attr {
        key: "_class"
        value {
          list {
            s: "loc:@conv32/BatchNorm/moving_variance"
          }
        }
      }
      attr {
        key: "_output_shapes"
        value {
          list {
            shape {
              dim {
                size: 4
              }
            }
          }
        }
      }
      attr {
        key: "use_locking"
        value {
          b: false
        }
      }
    }
    node {
      name: "conv32/BatchNorm/cond_1/Switch_1"
      op: "Switch"
      input: "conv32/BatchNorm/moving_mean/read"
      input: "conv32/BatchNorm/cond_1/pred_id"
      attr {
        key: "T"
        value {
          type: DT_FLOAT
        }
      }
      attr {
        key: "_class"
        value {
          list {
            s: "loc:@conv32/BatchNorm/moving_mean"
          }
        }
      }
      attr {
        key: "_output_shapes"
        value {
          list {
            shape {
              dim {
                size: 4
              }
            }
            shape {
              dim {
                size: 4
              }
            }
          }
        }
      }
    }
    node {
      name: "conv32/BatchNorm/cond_1/Switch_2"
      op: "Switch"
      input: "conv32/BatchNorm/moving_variance/read"
      input: "conv32/BatchNorm/cond_1/pred_id"
      attr {
        key: "T"
        value {
          type: DT_FLOAT
        }
      }
      attr {
        key: "_class"
        value {
          list {
            s: "loc:@conv32/BatchNorm/moving_variance"
          }
        }
      }
      attr {
        key: "_output_shapes"
        value {
          list {
            shape {
              dim {
                size: 4
              }
            }
            shape {
              dim {
                size: 4
              }
            }
          }
        }
      }
    }
    node {
      name: "conv32/BatchNorm/cond_1/Merge"
      op: "Merge"
      input: "conv32/BatchNorm/cond_1/Switch_1"
      input: "conv32/BatchNorm/cond_1/AssignMovingAvg"
      attr {
        key: "N"
        value {
          i: 2
        }
      }
      attr {
        key: "T"
        value {
          type: DT_FLOAT
        }
      }
      attr {
        key: "_output_shapes"
        value {
          list {
            shape {
              dim {
                size: 4
              }
            }
            shape {
            }
          }
        }
      }
    }
    node {
      name: "conv32/BatchNorm/cond_1/Merge_1"
      op: "Merge"
      input: "conv32/BatchNorm/cond_1/Switch_2"
      input: "conv32/BatchNorm/cond_1/AssignMovingAvg_1"
      attr {
        key: "N"
        value {
          i: 2
        }
      }
      attr {
        key: "T"
        value {
          type: DT_FLOAT
        }
      }
      attr {
        key: "_output_shapes"
        value {
          list {
            shape {
              dim {
                size: 4
              }
            }
            shape {
            }
          }
        }
      }
    }
    node {
      name: "conv32/Relu"
      op: "Relu"
      input: "conv32/BatchNorm/cond/Merge"
      attr {
        key: "T"
        value {
          type: DT_FLOAT
        }
      }
      attr {
        key: "_output_shapes"
        value {
          list {
            shape {
              dim {
                size: -1
              }
              dim {
                size: 32
              }
              dim {
                size: 32
              }
              dim {
                size: 4
              }
            }
          }
        }
      }
    }
    node {
      name: "conv16/weights/Initializer/random_uniform/shape"
      op: "Const"
      attr {
        key: "_class"
        value {
          list {
            s: "loc:@conv16/weights"
          }
        }
      }
      attr {
        key: "_output_shapes"
        value {
          list {
            shape {
              dim {
                size: 4
              }
            }
          }
        }
      }
      attr {
        key: "dtype"
        value {
          type: DT_INT32
        }
      }
      attr {
        key: "value"
        value {
          tensor {
            dtype: DT_INT32
            tensor_shape {
              dim {
                size: 4
              }
            }
            tensor_content: "\003\000\000\000\003\000\000\000\004\000\000\000\010\000\000\000"
          }
        }
      }
    }
    node {
      name: "conv16/weights/Initializer/random_uniform/min"
      op: "Const"
      attr {
        key: "_class"
        value {
          list {
            s: "loc:@conv16/weights"
          }
        }
      }
      attr {
        key: "_output_shapes"
        value {
          list {
            shape {
            }
          }
        }
      }
      attr {
        key: "dtype"
        value {
          type: DT_FLOAT
        }
      }
      attr {
        key: "value"
        value {
          tensor {
            dtype: DT_FLOAT
            tensor_shape {
            }
            float_val: -0.2357022613286972
          }
        }
      }
    }
    node {
      name: "conv16/weights/Initializer/random_uniform/max"
      op: "Const"
      attr {
        key: "_class"
        value {
          list {
            s: "loc:@conv16/weights"
          }
        }
      }
      attr {
        key: "_output_shapes"
        value {
          list {
            shape {
            }
          }
        }
      }
      attr {
        key: "dtype"
        value {
          type: DT_FLOAT
        }
      }
      attr {
        key: "value"
        value {
          tensor {
            dtype: DT_FLOAT
            tensor_shape {
            }
            float_val: 0.2357022613286972
          }
        }
      }
    }
    node {
      name: "conv16/weights/Initializer/random_uniform/RandomUniform"
      op: "RandomUniform"
      input: "conv16/weights/Initializer/random_uniform/shape"
      attr {
        key: "T"
        value {
          type: DT_INT32
        }
      }
      attr {
        key: "_class"
        value {
          list {
            s: "loc:@conv16/weights"
          }
        }
      }
      attr {
        key: "_output_shapes"
        value {
          list {
            shape {
              dim {
                size: 3
              }
              dim {
                size: 3
              }
              dim {
                size: 4
              }
              dim {
                size: 8
              }
            }
          }
        }
      }
      attr {
        key: "dtype"
        value {
          type: DT_FLOAT
        }
      }
      attr {
        key: "seed"
        value {
          i: 0
        }
      }
      attr {
        key: "seed2"
        value {
          i: 78
        }
      }
    }
    node {
      name: "conv16/weights/Initializer/random_uniform/sub"
      op: "Sub"
      input: "conv16/weights/Initializer/random_uniform/max"
      input: "conv16/weights/Initializer/random_uniform/min"
      attr {
        key: "T"
        value {
          type: DT_FLOAT
        }
      }
      attr {
        key: "_class"
        value {
          list {
            s: "loc:@conv16/weights"
          }
        }
      }
      attr {
        key: "_output_shapes"
        value {
          list {
            shape {
            }
          }
        }
      }
    }
    node {
      name: "conv16/weights/Initializer/random_uniform/mul"
      op: "Mul"
      input: "conv16/weights/Initializer/random_uniform/RandomUniform"
      input: "conv16/weights/Initializer/random_uniform/sub"
      attr {
        key: "T"
        value {
          type: DT_FLOAT
        }
      }
      attr {
        key: "_class"
        value {
          list {
            s: "loc:@conv16/weights"
          }
        }
      }
      attr {
        key: "_output_shapes"
        value {
          list {
            shape {
              dim {
                size: 3
              }
              dim {
                size: 3
              }
              dim {
                size: 4
              }
              dim {
                size: 8
              }
            }
          }
        }
      }
    }
    node {
      name: "conv16/weights/Initializer/random_uniform"
      op: "Add"
      input: "conv16/weights/Initializer/random_uniform/mul"
      input: "conv16/weights/Initializer/random_uniform/min"
      attr {
        key: "T"
        value {
          type: DT_FLOAT
        }
      }
      attr {
        key: "_class"
        value {
          list {
            s: "loc:@conv16/weights"
          }
        }
      }
      attr {
        key: "_output_shapes"
        value {
          list {
            shape {
              dim {
                size: 3
              }
              dim {
                size: 3
              }
              dim {
                size: 4
              }
              dim {
                size: 8
              }
            }
          }
        }
      }
    }
    node {
      name: "conv16/weights"
      op: "VariableV2"
      attr {
        key: "_class"
        value {
          list {
            s: "loc:@conv16/weights"
          }
        }
      }
      attr {
        key: "_output_shapes"
        value {
          list {
            shape {
              dim {
                size: 3
              }
              dim {
                size: 3
              }
              dim {
                size: 4
              }
              dim {
                size: 8
              }
            }
          }
        }
      }
      attr {
        key: "container"
        value {
          s: ""
        }
      }
      attr {
        key: "dtype"
        value {
          type: DT_FLOAT
        }
      }
      attr {
        key: "shape"
        value {
          shape {
            dim {
              size: 3
            }
            dim {
              size: 3
            }
            dim {
              size: 4
            }
            dim {
              size: 8
            }
          }
        }
      }
      attr {
        key: "shared_name"
        value {
          s: ""
        }
      }
    }
    node {
      name: "conv16/weights/Assign"
      op: "Assign"
      input: "conv16/weights"
      input: "conv16/weights/Initializer/random_uniform"
      attr {
        key: "T"
        value {
          type: DT_FLOAT
        }
      }
      attr {
        key: "_class"
        value {
          list {
            s: "loc:@conv16/weights"
          }
        }
      }
      attr {
        key: "_output_shapes"
        value {
          list {
            shape {
              dim {
                size: 3
              }
              dim {
                size: 3
              }
              dim {
                size: 4
              }
              dim {
                size: 8
              }
            }
          }
        }
      }
      attr {
        key: "use_locking"
        value {
          b: true
        }
      }
      attr {
        key: "validate_shape"
        value {
          b: true
        }
      }
    }
    node {
      name: "conv16/weights/read"
      op: "Identity"
      input: "conv16/weights"
      attr {
        key: "T"
        value {
          type: DT_FLOAT
        }
      }
      attr {
        key: "_class"
        value {
          list {
            s: "loc:@conv16/weights"
          }
        }
      }
      attr {
        key: "_output_shapes"
        value {
          list {
            shape {
              dim {
                size: 3
              }
              dim {
                size: 3
              }
              dim {
                size: 4
              }
              dim {
                size: 8
              }
            }
          }
        }
      }
    }
    node {
      name: "conv16/convolution/Shape"
      op: "Const"
      attr {
        key: "_output_shapes"
        value {
          list {
            shape {
              dim {
                size: 4
              }
            }
          }
        }
      }
      attr {
        key: "dtype"
        value {
          type: DT_INT32
        }
      }
      attr {
        key: "value"
        value {
          tensor {
            dtype: DT_INT32
            tensor_shape {
              dim {
                size: 4
              }
            }
            tensor_content: "\003\000\000\000\003\000\000\000\004\000\000\000\010\000\000\000"
          }
        }
      }
    }
    node {
      name: "conv16/convolution/dilation_rate"
      op: "Const"
      attr {
        key: "_output_shapes"
        value {
          list {
            shape {
              dim {
                size: 2
              }
            }
          }
        }
      }
      attr {
        key: "dtype"
        value {
          type: DT_INT32
        }
      }
      attr {
        key: "value"
        value {
          tensor {
            dtype: DT_INT32
            tensor_shape {
              dim {
                size: 2
              }
            }
            tensor_content: "\001\000\000\000\001\000\000\000"
          }
        }
      }
    }
    node {
      name: "conv16/convolution"
      op: "Conv2D"
      input: "conv32/Relu"
      input: "conv16/weights/read"
      attr {
        key: "T"
        value {
          type: DT_FLOAT
        }
      }
      attr {
        key: "_output_shapes"
        value {
          list {
            shape {
              dim {
                size: -1
              }
              dim {
                size: 16
              }
              dim {
                size: 16
              }
              dim {
                size: 8
              }
            }
          }
        }
      }
      attr {
        key: "data_format"
        value {
          s: "NHWC"
        }
      }
      attr {
        key: "padding"
        value {
          s: "SAME"
        }
      }
      attr {
        key: "strides"
        value {
          list {
            i: 1
            i: 2
            i: 2
            i: 1
          }
        }
      }
      attr {
        key: "use_cudnn_on_gpu"
        value {
          b: true
        }
      }
    }
    node {
      name: "conv16/BatchNorm/beta/Initializer/zeros"
      op: "Const"
      attr {
        key: "_class"
        value {
          list {
            s: "loc:@conv16/BatchNorm/beta"
          }
        }
      }
      attr {
        key: "_output_shapes"
        value {
          list {
            shape {
              dim {
                size: 8
              }
            }
          }
        }
      }
      attr {
        key: "dtype"
        value {
          type: DT_FLOAT
        }
      }
      attr {
        key: "value"
        value {
          tensor {
            dtype: DT_FLOAT
            tensor_shape {
              dim {
                size: 8
              }
            }
            float_val: 0.0
          }
        }
      }
    }
    node {
      name: "conv16/BatchNorm/beta"
      op: "VariableV2"
      attr {
        key: "_class"
        value {
          list {
            s: "loc:@conv16/BatchNorm/beta"
          }
        }
      }
      attr {
        key: "_output_shapes"
        value {
          list {
            shape {
              dim {
                size: 8
              }
            }
          }
        }
      }
      attr {
        key: "container"
        value {
          s: ""
        }
      }
      attr {
        key: "dtype"
        value {
          type: DT_FLOAT
        }
      }
      attr {
        key: "shape"
        value {
          shape {
            dim {
              size: 8
            }
          }
        }
      }
      attr {
        key: "shared_name"
        value {
          s: ""
        }
      }
    }
    node {
      name: "conv16/BatchNorm/beta/Assign"
      op: "Assign"
      input: "conv16/BatchNorm/beta"
      input: "conv16/BatchNorm/beta/Initializer/zeros"
      attr {
        key: "T"
        value {
          type: DT_FLOAT
        }
      }
      attr {
        key: "_class"
        value {
          list {
            s: "loc:@conv16/BatchNorm/beta"
          }
        }
      }
      attr {
        key: "_output_shapes"
        value {
          list {
            shape {
              dim {
                size: 8
              }
            }
          }
        }
      }
      attr {
        key: "use_locking"
        value {
          b: true
        }
      }
      attr {
        key: "validate_shape"
        value {
          b: true
        }
      }
    }
    node {
      name: "conv16/BatchNorm/beta/read"
      op: "Identity"
      input: "conv16/BatchNorm/beta"
      attr {
        key: "T"
        value {
          type: DT_FLOAT
        }
      }
      attr {
        key: "_class"
        value {
          list {
            s: "loc:@conv16/BatchNorm/beta"
          }
        }
      }
      attr {
        key: "_output_shapes"
        value {
          list {
            shape {
              dim {
                size: 8
              }
            }
          }
        }
      }
    }
    node {
      name: "conv16/BatchNorm/gamma/Initializer/ones"
      op: "Const"
      attr {
        key: "_class"
        value {
          list {
            s: "loc:@conv16/BatchNorm/gamma"
          }
        }
      }
      attr {
        key: "_output_shapes"
        value {
          list {
            shape {
              dim {
                size: 8
              }
            }
          }
        }
      }
      attr {
        key: "dtype"
        value {
          type: DT_FLOAT
        }
      }
      attr {
        key: "value"
        value {
          tensor {
            dtype: DT_FLOAT
            tensor_shape {
              dim {
                size: 8
              }
            }
            float_val: 1.0
          }
        }
      }
    }
    node {
      name: "conv16/BatchNorm/gamma"
      op: "VariableV2"
      attr {
        key: "_class"
        value {
          list {
            s: "loc:@conv16/BatchNorm/gamma"
          }
        }
      }
      attr {
        key: "_output_shapes"
        value {
          list {
            shape {
              dim {
                size: 8
              }
            }
          }
        }
      }
      attr {
        key: "container"
        value {
          s: ""
        }
      }
      attr {
        key: "dtype"
        value {
          type: DT_FLOAT
        }
      }
      attr {
        key: "shape"
        value {
          shape {
            dim {
              size: 8
            }
          }
        }
      }
      attr {
        key: "shared_name"
        value {
          s: ""
        }
      }
    }
    node {
      name: "conv16/BatchNorm/gamma/Assign"
      op: "Assign"
      input: "conv16/BatchNorm/gamma"
      input: "conv16/BatchNorm/gamma/Initializer/ones"
      attr {
        key: "T"
        value {
          type: DT_FLOAT
        }
      }
      attr {
        key: "_class"
        value {
          list {
            s: "loc:@conv16/BatchNorm/gamma"
          }
        }
      }
      attr {
        key: "_output_shapes"
        value {
          list {
            shape {
              dim {
                size: 8
              }
            }
          }
        }
      }
      attr {
        key: "use_locking"
        value {
          b: true
        }
      }
      attr {
        key: "validate_shape"
        value {
          b: true
        }
      }
    }
    node {
      name: "conv16/BatchNorm/gamma/read"
      op: "Identity"
      input: "conv16/BatchNorm/gamma"
      attr {
        key: "T"
        value {
          type: DT_FLOAT
        }
      }
      attr {
        key: "_class"
        value {
          list {
            s: "loc:@conv16/BatchNorm/gamma"
          }
        }
      }
      attr {
        key: "_output_shapes"
        value {
          list {
            shape {
              dim {
                size: 8
              }
            }
          }
        }
      }
    }
    node {
      name: "conv16/BatchNorm/moving_mean/Initializer/zeros"
      op: "Const"
      attr {
        key: "_class"
        value {
          list {
            s: "loc:@conv16/BatchNorm/moving_mean"
          }
        }
      }
      attr {
        key: "_output_shapes"
        value {
          list {
            shape {
              dim {
                size: 8
              }
            }
          }
        }
      }
      attr {
        key: "dtype"
        value {
          type: DT_FLOAT
        }
      }
      attr {
        key: "value"
        value {
          tensor {
            dtype: DT_FLOAT
            tensor_shape {
              dim {
                size: 8
              }
            }
            float_val: 0.0
          }
        }
      }
    }
    node {
      name: "conv16/BatchNorm/moving_mean"
      op: "VariableV2"
      attr {
        key: "_class"
        value {
          list {
            s: "loc:@conv16/BatchNorm/moving_mean"
          }
        }
      }
      attr {
        key: "_output_shapes"
        value {
          list {
            shape {
              dim {
                size: 8
              }
            }
          }
        }
      }
      attr {
        key: "container"
        value {
          s: ""
        }
      }
      attr {
        key: "dtype"
        value {
          type: DT_FLOAT
        }
      }
      attr {
        key: "shape"
        value {
          shape {
            dim {
              size: 8
            }
          }
        }
      }
      attr {
        key: "shared_name"
        value {
          s: ""
        }
      }
    }
    node {
      name: "conv16/BatchNorm/moving_mean/Assign"
      op: "Assign"
      input: "conv16/BatchNorm/moving_mean"
      input: "conv16/BatchNorm/moving_mean/Initializer/zeros"
      attr {
        key: "T"
        value {
          type: DT_FLOAT
        }
      }
      attr {
        key: "_class"
        value {
          list {
            s: "loc:@conv16/BatchNorm/moving_mean"
          }
        }
      }
      attr {
        key: "_output_shapes"
        value {
          list {
            shape {
              dim {
                size: 8
              }
            }
          }
        }
      }
      attr {
        key: "use_locking"
        value {
          b: true
        }
      }
      attr {
        key: "validate_shape"
        value {
          b: true
        }
      }
    }
    node {
      name: "conv16/BatchNorm/moving_mean/read"
      op: "Identity"
      input: "conv16/BatchNorm/moving_mean"
      attr {
        key: "T"
        value {
          type: DT_FLOAT
        }
      }
      attr {
        key: "_class"
        value {
          list {
            s: "loc:@conv16/BatchNorm/moving_mean"
          }
        }
      }
      attr {
        key: "_output_shapes"
        value {
          list {
            shape {
              dim {
                size: 8
              }
            }
          }
        }
      }
    }
    node {
      name: "conv16/BatchNorm/moving_variance/Initializer/ones"
      op: "Const"
      attr {
        key: "_class"
        value {
          list {
            s: "loc:@conv16/BatchNorm/moving_variance"
          }
        }
      }
      attr {
        key: "_output_shapes"
        value {
          list {
            shape {
              dim {
                size: 8
              }
            }
          }
        }
      }
      attr {
        key: "dtype"
        value {
          type: DT_FLOAT
        }
      }
      attr {
        key: "value"
        value {
          tensor {
            dtype: DT_FLOAT
            tensor_shape {
              dim {
                size: 8
              }
            }
            float_val: 1.0
          }
        }
      }
    }
    node {
      name: "conv16/BatchNorm/moving_variance"
      op: "VariableV2"
      attr {
        key: "_class"
        value {
          list {
            s: "loc:@conv16/BatchNorm/moving_variance"
          }
        }
      }
      attr {
        key: "_output_shapes"
        value {
          list {
            shape {
              dim {
                size: 8
              }
            }
          }
        }
      }
      attr {
        key: "container"
        value {
          s: ""
        }
      }
      attr {
        key: "dtype"
        value {
          type: DT_FLOAT
        }
      }
      attr {
        key: "shape"
        value {
          shape {
            dim {
              size: 8
            }
          }
        }
      }
      attr {
        key: "shared_name"
        value {
          s: ""
        }
      }
    }
    node {
      name: "conv16/BatchNorm/moving_variance/Assign"
      op: "Assign"
      input: "conv16/BatchNorm/moving_variance"
      input: "conv16/BatchNorm/moving_variance/Initializer/ones"
      attr {
        key: "T"
        value {
          type: DT_FLOAT
        }
      }
      attr {
        key: "_class"
        value {
          list {
            s: "loc:@conv16/BatchNorm/moving_variance"
          }
        }
      }
      attr {
        key: "_output_shapes"
        value {
          list {
            shape {
              dim {
                size: 8
              }
            }
          }
        }
      }
      attr {
        key: "use_locking"
        value {
          b: true
        }
      }
      attr {
        key: "validate_shape"
        value {
          b: true
        }
      }
    }
    node {
      name: "conv16/BatchNorm/moving_variance/read"
      op: "Identity"
      input: "conv16/BatchNorm/moving_variance"
      attr {
        key: "T"
        value {
          type: DT_FLOAT
        }
      }
      attr {
        key: "_class"
        value {
          list {
            s: "loc:@conv16/BatchNorm/moving_variance"
          }
        }
      }
      attr {
        key: "_output_shapes"
        value {
          list {
            shape {
              dim {
                size: 8
              }
            }
          }
        }
      }
    }
    node {
      name: "conv16/BatchNorm/cond/Switch"
      op: "Switch"
      input: "placeholder/is_training"
      input: "placeholder/is_training"
      attr {
        key: "T"
        value {
          type: DT_BOOL
        }
      }
      attr {
        key: "_output_shapes"
        value {
          list {
            shape {
            }
            shape {
            }
          }
        }
      }
    }
    node {
      name: "conv16/BatchNorm/cond/switch_t"
      op: "Identity"
      input: "conv16/BatchNorm/cond/Switch:1"
      attr {
        key: "T"
        value {
          type: DT_BOOL
        }
      }
      attr {
        key: "_output_shapes"
        value {
          list {
            shape {
            }
          }
        }
      }
    }
    node {
      name: "conv16/BatchNorm/cond/switch_f"
      op: "Identity"
      input: "conv16/BatchNorm/cond/Switch"
      attr {
        key: "T"
        value {
          type: DT_BOOL
        }
      }
      attr {
        key: "_output_shapes"
        value {
          list {
            shape {
            }
          }
        }
      }
    }
    node {
      name: "conv16/BatchNorm/cond/pred_id"
      op: "Identity"
      input: "placeholder/is_training"
      attr {
        key: "T"
        value {
          type: DT_BOOL
        }
      }
      attr {
        key: "_output_shapes"
        value {
          list {
            shape {
            }
          }
        }
      }
    }
    node {
      name: "conv16/BatchNorm/cond/Const"
      op: "Const"
      input: "^conv16/BatchNorm/cond/switch_t"
      attr {
        key: "_output_shapes"
        value {
          list {
            shape {
              dim {
              }
            }
          }
        }
      }
      attr {
        key: "dtype"
        value {
          type: DT_FLOAT
        }
      }
      attr {
        key: "value"
        value {
          tensor {
            dtype: DT_FLOAT
            tensor_shape {
              dim {
              }
            }
          }
        }
      }
    }
    node {
      name: "conv16/BatchNorm/cond/Const_1"
      op: "Const"
      input: "^conv16/BatchNorm/cond/switch_t"
      attr {
        key: "_output_shapes"
        value {
          list {
            shape {
              dim {
              }
            }
          }
        }
      }
      attr {
        key: "dtype"
        value {
          type: DT_FLOAT
        }
      }
      attr {
        key: "value"
        value {
          tensor {
            dtype: DT_FLOAT
            tensor_shape {
              dim {
              }
            }
          }
        }
      }
    }
    node {
      name: "conv16/BatchNorm/cond/FusedBatchNorm/Switch"
      op: "Switch"
      input: "conv16/convolution"
      input: "conv16/BatchNorm/cond/pred_id"
      attr {
        key: "T"
        value {
          type: DT_FLOAT
        }
      }
      attr {
        key: "_class"
        value {
          list {
            s: "loc:@conv16/convolution"
          }
        }
      }
      attr {
        key: "_output_shapes"
        value {
          list {
            shape {
              dim {
                size: -1
              }
              dim {
                size: 16
              }
              dim {
                size: 16
              }
              dim {
                size: 8
              }
            }
            shape {
              dim {
                size: -1
              }
              dim {
                size: 16
              }
              dim {
                size: 16
              }
              dim {
                size: 8
              }
            }
          }
        }
      }
    }
    node {
      name: "conv16/BatchNorm/cond/FusedBatchNorm/Switch_1"
      op: "Switch"
      input: "conv16/BatchNorm/gamma/read"
      input: "conv16/BatchNorm/cond/pred_id"
      attr {
        key: "T"
        value {
          type: DT_FLOAT
        }
      }
      attr {
        key: "_class"
        value {
          list {
            s: "loc:@conv16/BatchNorm/gamma"
          }
        }
      }
      attr {
        key: "_output_shapes"
        value {
          list {
            shape {
              dim {
                size: 8
              }
            }
            shape {
              dim {
                size: 8
              }
            }
          }
        }
      }
    }
    node {
      name: "conv16/BatchNorm/cond/FusedBatchNorm/Switch_2"
      op: "Switch"
      input: "conv16/BatchNorm/beta/read"
      input: "conv16/BatchNorm/cond/pred_id"
      attr {
        key: "T"
        value {
          type: DT_FLOAT
        }
      }
      attr {
        key: "_class"
        value {
          list {
            s: "loc:@conv16/BatchNorm/beta"
          }
        }
      }
      attr {
        key: "_output_shapes"
        value {
          list {
            shape {
              dim {
                size: 8
              }
            }
            shape {
              dim {
                size: 8
              }
            }
          }
        }
      }
    }
    node {
      name: "conv16/BatchNorm/cond/FusedBatchNorm"
      op: "FusedBatchNorm"
      input: "conv16/BatchNorm/cond/FusedBatchNorm/Switch:1"
      input: "conv16/BatchNorm/cond/FusedBatchNorm/Switch_1:1"
      input: "conv16/BatchNorm/cond/FusedBatchNorm/Switch_2:1"
      input: "conv16/BatchNorm/cond/Const"
      input: "conv16/BatchNorm/cond/Const_1"
      attr {
        key: "T"
        value {
          type: DT_FLOAT
        }
      }
      attr {
        key: "_output_shapes"
        value {
          list {
            shape {
              dim {
                size: -1
              }
              dim {
                size: 16
              }
              dim {
                size: 16
              }
              dim {
                size: 8
              }
            }
            shape {
              dim {
                size: 8
              }
            }
            shape {
              dim {
                size: 8
              }
            }
            shape {
              dim {
                size: 8
              }
            }
            shape {
              dim {
                size: 8
              }
            }
          }
        }
      }
      attr {
        key: "data_format"
        value {
          s: "NHWC"
        }
      }
      attr {
        key: "epsilon"
        value {
          f: 0.0010000000474974513
        }
      }
      attr {
        key: "is_training"
        value {
          b: true
        }
      }
    }
    node {
      name: "conv16/BatchNorm/cond/FusedBatchNorm_1/Switch"
      op: "Switch"
      input: "conv16/convolution"
      input: "conv16/BatchNorm/cond/pred_id"
      attr {
        key: "T"
        value {
          type: DT_FLOAT
        }
      }
      attr {
        key: "_class"
        value {
          list {
            s: "loc:@conv16/convolution"
          }
        }
      }
      attr {
        key: "_output_shapes"
        value {
          list {
            shape {
              dim {
                size: -1
              }
              dim {
                size: 16
              }
              dim {
                size: 16
              }
              dim {
                size: 8
              }
            }
            shape {
              dim {
                size: -1
              }
              dim {
                size: 16
              }
              dim {
                size: 16
              }
              dim {
                size: 8
              }
            }
          }
        }
      }
    }
    node {
      name: "conv16/BatchNorm/cond/FusedBatchNorm_1/Switch_1"
      op: "Switch"
      input: "conv16/BatchNorm/gamma/read"
      input: "conv16/BatchNorm/cond/pred_id"
      attr {
        key: "T"
        value {
          type: DT_FLOAT
        }
      }
      attr {
        key: "_class"
        value {
          list {
            s: "loc:@conv16/BatchNorm/gamma"
          }
        }
      }
      attr {
        key: "_output_shapes"
        value {
          list {
            shape {
              dim {
                size: 8
              }
            }
            shape {
              dim {
                size: 8
              }
            }
          }
        }
      }
    }
    node {
      name: "conv16/BatchNorm/cond/FusedBatchNorm_1/Switch_2"
      op: "Switch"
      input: "conv16/BatchNorm/beta/read"
      input: "conv16/BatchNorm/cond/pred_id"
      attr {
        key: "T"
        value {
          type: DT_FLOAT
        }
      }
      attr {
        key: "_class"
        value {
          list {
            s: "loc:@conv16/BatchNorm/beta"
          }
        }
      }
      attr {
        key: "_output_shapes"
        value {
          list {
            shape {
              dim {
                size: 8
              }
            }
            shape {
              dim {
                size: 8
              }
            }
          }
        }
      }
    }
    node {
      name: "conv16/BatchNorm/cond/FusedBatchNorm_1/Switch_3"
      op: "Switch"
      input: "conv16/BatchNorm/moving_mean/read"
      input: "conv16/BatchNorm/cond/pred_id"
      attr {
        key: "T"
        value {
          type: DT_FLOAT
        }
      }
      attr {
        key: "_class"
        value {
          list {
            s: "loc:@conv16/BatchNorm/moving_mean"
          }
        }
      }
      attr {
        key: "_output_shapes"
        value {
          list {
            shape {
              dim {
                size: 8
              }
            }
            shape {
              dim {
                size: 8
              }
            }
          }
        }
      }
    }
    node {
      name: "conv16/BatchNorm/cond/FusedBatchNorm_1/Switch_4"
      op: "Switch"
      input: "conv16/BatchNorm/moving_variance/read"
      input: "conv16/BatchNorm/cond/pred_id"
      attr {
        key: "T"
        value {
          type: DT_FLOAT
        }
      }
      attr {
        key: "_class"
        value {
          list {
            s: "loc:@conv16/BatchNorm/moving_variance"
          }
        }
      }
      attr {
        key: "_output_shapes"
        value {
          list {
            shape {
              dim {
                size: 8
              }
            }
            shape {
              dim {
                size: 8
              }
            }
          }
        }
      }
    }
    node {
      name: "conv16/BatchNorm/cond/FusedBatchNorm_1"
      op: "FusedBatchNorm"
      input: "conv16/BatchNorm/cond/FusedBatchNorm_1/Switch"
      input: "conv16/BatchNorm/cond/FusedBatchNorm_1/Switch_1"
      input: "conv16/BatchNorm/cond/FusedBatchNorm_1/Switch_2"
      input: "conv16/BatchNorm/cond/FusedBatchNorm_1/Switch_3"
      input: "conv16/BatchNorm/cond/FusedBatchNorm_1/Switch_4"
      attr {
        key: "T"
        value {
          type: DT_FLOAT
        }
      }
      attr {
        key: "_output_shapes"
        value {
          list {
            shape {
              dim {
                size: -1
              }
              dim {
                size: 16
              }
              dim {
                size: 16
              }
              dim {
                size: 8
              }
            }
            shape {
              dim {
                size: 8
              }
            }
            shape {
              dim {
                size: 8
              }
            }
            shape {
              dim {
                size: 8
              }
            }
            shape {
              dim {
                size: 8
              }
            }
          }
        }
      }
      attr {
        key: "data_format"
        value {
          s: "NHWC"
        }
      }
      attr {
        key: "epsilon"
        value {
          f: 0.0010000000474974513
        }
      }
      attr {
        key: "is_training"
        value {
          b: false
        }
      }
    }
    node {
      name: "conv16/BatchNorm/cond/Merge"
      op: "Merge"
      input: "conv16/BatchNorm/cond/FusedBatchNorm_1"
      input: "conv16/BatchNorm/cond/FusedBatchNorm"
      attr {
        key: "N"
        value {
          i: 2
        }
      }
      attr {
        key: "T"
        value {
          type: DT_FLOAT
        }
      }
      attr {
        key: "_output_shapes"
        value {
          list {
            shape {
              dim {
                size: -1
              }
              dim {
                size: 16
              }
              dim {
                size: 16
              }
              dim {
                size: 8
              }
            }
            shape {
            }
          }
        }
      }
    }
    node {
      name: "conv16/BatchNorm/cond/Merge_1"
      op: "Merge"
      input: "conv16/BatchNorm/cond/FusedBatchNorm_1:1"
      input: "conv16/BatchNorm/cond/FusedBatchNorm:1"
      attr {
        key: "N"
        value {
          i: 2
        }
      }
      attr {
        key: "T"
        value {
          type: DT_FLOAT
        }
      }
      attr {
        key: "_output_shapes"
        value {
          list {
            shape {
              dim {
                size: 8
              }
            }
            shape {
            }
          }
        }
      }
    }
    node {
      name: "conv16/BatchNorm/cond/Merge_2"
      op: "Merge"
      input: "conv16/BatchNorm/cond/FusedBatchNorm_1:2"
      input: "conv16/BatchNorm/cond/FusedBatchNorm:2"
      attr {
        key: "N"
        value {
          i: 2
        }
      }
      attr {
        key: "T"
        value {
          type: DT_FLOAT
        }
      }
      attr {
        key: "_output_shapes"
        value {
          list {
            shape {
              dim {
                size: 8
              }
            }
            shape {
            }
          }
        }
      }
    }
    node {
      name: "conv16/BatchNorm/cond_1/Switch"
      op: "Switch"
      input: "placeholder/is_training"
      input: "placeholder/is_training"
      attr {
        key: "T"
        value {
          type: DT_BOOL
        }
      }
      attr {
        key: "_output_shapes"
        value {
          list {
            shape {
            }
            shape {
            }
          }
        }
      }
    }
    node {
      name: "conv16/BatchNorm/cond_1/switch_t"
      op: "Identity"
      input: "conv16/BatchNorm/cond_1/Switch:1"
      attr {
        key: "T"
        value {
          type: DT_BOOL
        }
      }
      attr {
        key: "_output_shapes"
        value {
          list {
            shape {
            }
          }
        }
      }
    }
    node {
      name: "conv16/BatchNorm/cond_1/switch_f"
      op: "Identity"
      input: "conv16/BatchNorm/cond_1/Switch"
      attr {
        key: "T"
        value {
          type: DT_BOOL
        }
      }
      attr {
        key: "_output_shapes"
        value {
          list {
            shape {
            }
          }
        }
      }
    }
    node {
      name: "conv16/BatchNorm/cond_1/pred_id"
      op: "Identity"
      input: "placeholder/is_training"
      attr {
        key: "T"
        value {
          type: DT_BOOL
        }
      }
      attr {
        key: "_output_shapes"
        value {
          list {
            shape {
            }
          }
        }
      }
    }
    node {
      name: "conv16/BatchNorm/cond_1/AssignMovingAvg/decay"
      op: "Const"
      input: "^conv16/BatchNorm/cond_1/switch_t"
      attr {
        key: "_class"
        value {
          list {
            s: "loc:@conv16/BatchNorm/moving_mean"
          }
        }
      }
      attr {
        key: "_output_shapes"
        value {
          list {
            shape {
            }
          }
        }
      }
      attr {
        key: "dtype"
        value {
          type: DT_FLOAT
        }
      }
      attr {
        key: "value"
        value {
          tensor {
            dtype: DT_FLOAT
            tensor_shape {
            }
            float_val: 0.009999999776482582
          }
        }
      }
    }
    node {
      name: "conv16/BatchNorm/cond_1/AssignMovingAvg/sub/Switch"
      op: "Switch"
      input: "conv16/BatchNorm/moving_mean/read"
      input: "conv16/BatchNorm/cond_1/pred_id"
      attr {
        key: "T"
        value {
          type: DT_FLOAT
        }
      }
      attr {
        key: "_class"
        value {
          list {
            s: "loc:@conv16/BatchNorm/moving_mean"
          }
        }
      }
      attr {
        key: "_output_shapes"
        value {
          list {
            shape {
              dim {
                size: 8
              }
            }
            shape {
              dim {
                size: 8
              }
            }
          }
        }
      }
    }
    node {
      name: "conv16/BatchNorm/cond_1/AssignMovingAvg/sub/Switch_1"
      op: "Switch"
      input: "conv16/BatchNorm/cond/Merge_1"
      input: "conv16/BatchNorm/cond_1/pred_id"
      attr {
        key: "T"
        value {
          type: DT_FLOAT
        }
      }
      attr {
        key: "_class"
        value {
          list {
            s: "loc:@conv16/BatchNorm/cond/Merge_1"
          }
        }
      }
      attr {
        key: "_output_shapes"
        value {
          list {
            shape {
              dim {
                size: 8
              }
            }
            shape {
              dim {
                size: 8
              }
            }
          }
        }
      }
    }
    node {
      name: "conv16/BatchNorm/cond_1/AssignMovingAvg/sub"
      op: "Sub"
      input: "conv16/BatchNorm/cond_1/AssignMovingAvg/sub/Switch:1"
      input: "conv16/BatchNorm/cond_1/AssignMovingAvg/sub/Switch_1:1"
      attr {
        key: "T"
        value {
          type: DT_FLOAT
        }
      }
      attr {
        key: "_class"
        value {
          list {
            s: "loc:@conv16/BatchNorm/moving_mean"
          }
        }
      }
      attr {
        key: "_output_shapes"
        value {
          list {
            shape {
              dim {
                size: 8
              }
            }
          }
        }
      }
    }
    node {
      name: "conv16/BatchNorm/cond_1/AssignMovingAvg/mul"
      op: "Mul"
      input: "conv16/BatchNorm/cond_1/AssignMovingAvg/sub"
      input: "conv16/BatchNorm/cond_1/AssignMovingAvg/decay"
      attr {
        key: "T"
        value {
          type: DT_FLOAT
        }
      }
      attr {
        key: "_class"
        value {
          list {
            s: "loc:@conv16/BatchNorm/moving_mean"
          }
        }
      }
      attr {
        key: "_output_shapes"
        value {
          list {
            shape {
              dim {
                size: 8
              }
            }
          }
        }
      }
    }
    node {
      name: "conv16/BatchNorm/cond_1/AssignMovingAvg/Switch"
      op: "RefSwitch"
      input: "conv16/BatchNorm/moving_mean"
      input: "conv16/BatchNorm/cond_1/pred_id"
      attr {
        key: "T"
        value {
          type: DT_FLOAT
        }
      }
      attr {
        key: "_class"
        value {
          list {
            s: "loc:@conv16/BatchNorm/moving_mean"
          }
        }
      }
      attr {
        key: "_output_shapes"
        value {
          list {
            shape {
              dim {
                size: 8
              }
            }
            shape {
              dim {
                size: 8
              }
            }
          }
        }
      }
    }
    node {
      name: "conv16/BatchNorm/cond_1/AssignMovingAvg"
      op: "AssignSub"
      input: "conv16/BatchNorm/cond_1/AssignMovingAvg/Switch:1"
      input: "conv16/BatchNorm/cond_1/AssignMovingAvg/mul"
      attr {
        key: "T"
        value {
          type: DT_FLOAT
        }
      }
      attr {
        key: "_class"
        value {
          list {
            s: "loc:@conv16/BatchNorm/moving_mean"
          }
        }
      }
      attr {
        key: "_output_shapes"
        value {
          list {
            shape {
              dim {
                size: 8
              }
            }
          }
        }
      }
      attr {
        key: "use_locking"
        value {
          b: false
        }
      }
    }
    node {
      name: "conv16/BatchNorm/cond_1/AssignMovingAvg_1/decay"
      op: "Const"
      input: "^conv16/BatchNorm/cond_1/switch_t"
      attr {
        key: "_class"
        value {
          list {
            s: "loc:@conv16/BatchNorm/moving_variance"
          }
        }
      }
      attr {
        key: "_output_shapes"
        value {
          list {
            shape {
            }
          }
        }
      }
      attr {
        key: "dtype"
        value {
          type: DT_FLOAT
        }
      }
      attr {
        key: "value"
        value {
          tensor {
            dtype: DT_FLOAT
            tensor_shape {
            }
            float_val: 0.009999999776482582
          }
        }
      }
    }
    node {
      name: "conv16/BatchNorm/cond_1/AssignMovingAvg_1/sub/Switch"
      op: "Switch"
      input: "conv16/BatchNorm/moving_variance/read"
      input: "conv16/BatchNorm/cond_1/pred_id"
      attr {
        key: "T"
        value {
          type: DT_FLOAT
        }
      }
      attr {
        key: "_class"
        value {
          list {
            s: "loc:@conv16/BatchNorm/moving_variance"
          }
        }
      }
      attr {
        key: "_output_shapes"
        value {
          list {
            shape {
              dim {
                size: 8
              }
            }
            shape {
              dim {
                size: 8
              }
            }
          }
        }
      }
    }
    node {
      name: "conv16/BatchNorm/cond_1/AssignMovingAvg_1/sub/Switch_1"
      op: "Switch"
      input: "conv16/BatchNorm/cond/Merge_2"
      input: "conv16/BatchNorm/cond_1/pred_id"
      attr {
        key: "T"
        value {
          type: DT_FLOAT
        }
      }
      attr {
        key: "_class"
        value {
          list {
            s: "loc:@conv16/BatchNorm/cond/Merge_2"
          }
        }
      }
      attr {
        key: "_output_shapes"
        value {
          list {
            shape {
              dim {
                size: 8
              }
            }
            shape {
              dim {
                size: 8
              }
            }
          }
        }
      }
    }
    node {
      name: "conv16/BatchNorm/cond_1/AssignMovingAvg_1/sub"
      op: "Sub"
      input: "conv16/BatchNorm/cond_1/AssignMovingAvg_1/sub/Switch:1"
      input: "conv16/BatchNorm/cond_1/AssignMovingAvg_1/sub/Switch_1:1"
      attr {
        key: "T"
        value {
          type: DT_FLOAT
        }
      }
      attr {
        key: "_class"
        value {
          list {
            s: "loc:@conv16/BatchNorm/moving_variance"
          }
        }
      }
      attr {
        key: "_output_shapes"
        value {
          list {
            shape {
              dim {
                size: 8
              }
            }
          }
        }
      }
    }
    node {
      name: "conv16/BatchNorm/cond_1/AssignMovingAvg_1/mul"
      op: "Mul"
      input: "conv16/BatchNorm/cond_1/AssignMovingAvg_1/sub"
      input: "conv16/BatchNorm/cond_1/AssignMovingAvg_1/decay"
      attr {
        key: "T"
        value {
          type: DT_FLOAT
        }
      }
      attr {
        key: "_class"
        value {
          list {
            s: "loc:@conv16/BatchNorm/moving_variance"
          }
        }
      }
      attr {
        key: "_output_shapes"
        value {
          list {
            shape {
              dim {
                size: 8
              }
            }
          }
        }
      }
    }
    node {
      name: "conv16/BatchNorm/cond_1/AssignMovingAvg_1/Switch"
      op: "RefSwitch"
      input: "conv16/BatchNorm/moving_variance"
      input: "conv16/BatchNorm/cond_1/pred_id"
      attr {
        key: "T"
        value {
          type: DT_FLOAT
        }
      }
      attr {
        key: "_class"
        value {
          list {
            s: "loc:@conv16/BatchNorm/moving_variance"
          }
        }
      }
      attr {
        key: "_output_shapes"
        value {
          list {
            shape {
              dim {
                size: 8
              }
            }
            shape {
              dim {
                size: 8
              }
            }
          }
        }
      }
    }
    node {
      name: "conv16/BatchNorm/cond_1/AssignMovingAvg_1"
      op: "AssignSub"
      input: "conv16/BatchNorm/cond_1/AssignMovingAvg_1/Switch:1"
      input: "conv16/BatchNorm/cond_1/AssignMovingAvg_1/mul"
      attr {
        key: "T"
        value {
          type: DT_FLOAT
        }
      }
      attr {
        key: "_class"
        value {
          list {
            s: "loc:@conv16/BatchNorm/moving_variance"
          }
        }
      }
      attr {
        key: "_output_shapes"
        value {
          list {
            shape {
              dim {
                size: 8
              }
            }
          }
        }
      }
      attr {
        key: "use_locking"
        value {
          b: false
        }
      }
    }
    node {
      name: "conv16/BatchNorm/cond_1/Switch_1"
      op: "Switch"
      input: "conv16/BatchNorm/moving_mean/read"
      input: "conv16/BatchNorm/cond_1/pred_id"
      attr {
        key: "T"
        value {
          type: DT_FLOAT
        }
      }
      attr {
        key: "_class"
        value {
          list {
            s: "loc:@conv16/BatchNorm/moving_mean"
          }
        }
      }
      attr {
        key: "_output_shapes"
        value {
          list {
            shape {
              dim {
                size: 8
              }
            }
            shape {
              dim {
                size: 8
              }
            }
          }
        }
      }
    }
    node {
      name: "conv16/BatchNorm/cond_1/Switch_2"
      op: "Switch"
      input: "conv16/BatchNorm/moving_variance/read"
      input: "conv16/BatchNorm/cond_1/pred_id"
      attr {
        key: "T"
        value {
          type: DT_FLOAT
        }
      }
      attr {
        key: "_class"
        value {
          list {
            s: "loc:@conv16/BatchNorm/moving_variance"
          }
        }
      }
      attr {
        key: "_output_shapes"
        value {
          list {
            shape {
              dim {
                size: 8
              }
            }
            shape {
              dim {
                size: 8
              }
            }
          }
        }
      }
    }
    node {
      name: "conv16/BatchNorm/cond_1/Merge"
      op: "Merge"
      input: "conv16/BatchNorm/cond_1/Switch_1"
      input: "conv16/BatchNorm/cond_1/AssignMovingAvg"
      attr {
        key: "N"
        value {
          i: 2
        }
      }
      attr {
        key: "T"
        value {
          type: DT_FLOAT
        }
      }
      attr {
        key: "_output_shapes"
        value {
          list {
            shape {
              dim {
                size: 8
              }
            }
            shape {
            }
          }
        }
      }
    }
    node {
      name: "conv16/BatchNorm/cond_1/Merge_1"
      op: "Merge"
      input: "conv16/BatchNorm/cond_1/Switch_2"
      input: "conv16/BatchNorm/cond_1/AssignMovingAvg_1"
      attr {
        key: "N"
        value {
          i: 2
        }
      }
      attr {
        key: "T"
        value {
          type: DT_FLOAT
        }
      }
      attr {
        key: "_output_shapes"
        value {
          list {
            shape {
              dim {
                size: 8
              }
            }
            shape {
            }
          }
        }
      }
    }
    node {
      name: "conv16/Relu"
      op: "Relu"
      input: "conv16/BatchNorm/cond/Merge"
      attr {
        key: "T"
        value {
          type: DT_FLOAT
        }
      }
      attr {
        key: "_output_shapes"
        value {
          list {
            shape {
              dim {
                size: -1
              }
              dim {
                size: 16
              }
              dim {
                size: 16
              }
              dim {
                size: 8
              }
            }
          }
        }
      }
    }
    node {
      name: "conv8/weights/Initializer/random_uniform/shape"
      op: "Const"
      attr {
        key: "_class"
        value {
          list {
            s: "loc:@conv8/weights"
          }
        }
      }
      attr {
        key: "_output_shapes"
        value {
          list {
            shape {
              dim {
                size: 4
              }
            }
          }
        }
      }
      attr {
        key: "dtype"
        value {
          type: DT_INT32
        }
      }
      attr {
        key: "value"
        value {
          tensor {
            dtype: DT_INT32
            tensor_shape {
              dim {
                size: 4
              }
            }
            tensor_content: "\003\000\000\000\003\000\000\000\010\000\000\000\020\000\000\000"
          }
        }
      }
    }
    node {
      name: "conv8/weights/Initializer/random_uniform/min"
      op: "Const"
      attr {
        key: "_class"
        value {
          list {
            s: "loc:@conv8/weights"
          }
        }
      }
      attr {
        key: "_output_shapes"
        value {
          list {
            shape {
            }
          }
        }
      }
      attr {
        key: "dtype"
        value {
          type: DT_FLOAT
        }
      }
      attr {
        key: "value"
        value {
          tensor {
            dtype: DT_FLOAT
            tensor_shape {
            }
            float_val: -0.1666666716337204
          }
        }
      }
    }
    node {
      name: "conv8/weights/Initializer/random_uniform/max"
      op: "Const"
      attr {
        key: "_class"
        value {
          list {
            s: "loc:@conv8/weights"
          }
        }
      }
      attr {
        key: "_output_shapes"
        value {
          list {
            shape {
            }
          }
        }
      }
      attr {
        key: "dtype"
        value {
          type: DT_FLOAT
        }
      }
      attr {
        key: "value"
        value {
          tensor {
            dtype: DT_FLOAT
            tensor_shape {
            }
            float_val: 0.1666666716337204
          }
        }
      }
    }
    node {
      name: "conv8/weights/Initializer/random_uniform/RandomUniform"
      op: "RandomUniform"
      input: "conv8/weights/Initializer/random_uniform/shape"
      attr {
        key: "T"
        value {
          type: DT_INT32
        }
      }
      attr {
        key: "_class"
        value {
          list {
            s: "loc:@conv8/weights"
          }
        }
      }
      attr {
        key: "_output_shapes"
        value {
          list {
            shape {
              dim {
                size: 3
              }
              dim {
                size: 3
              }
              dim {
                size: 8
              }
              dim {
                size: 16
              }
            }
          }
        }
      }
      attr {
        key: "dtype"
        value {
          type: DT_FLOAT
        }
      }
      attr {
        key: "seed"
        value {
          i: 0
        }
      }
      attr {
        key: "seed2"
        value {
          i: 149
        }
      }
    }
    node {
      name: "conv8/weights/Initializer/random_uniform/sub"
      op: "Sub"
      input: "conv8/weights/Initializer/random_uniform/max"
      input: "conv8/weights/Initializer/random_uniform/min"
      attr {
        key: "T"
        value {
          type: DT_FLOAT
        }
      }
      attr {
        key: "_class"
        value {
          list {
            s: "loc:@conv8/weights"
          }
        }
      }
      attr {
        key: "_output_shapes"
        value {
          list {
            shape {
            }
          }
        }
      }
    }
    node {
      name: "conv8/weights/Initializer/random_uniform/mul"
      op: "Mul"
      input: "conv8/weights/Initializer/random_uniform/RandomUniform"
      input: "conv8/weights/Initializer/random_uniform/sub"
      attr {
        key: "T"
        value {
          type: DT_FLOAT
        }
      }
      attr {
        key: "_class"
        value {
          list {
            s: "loc:@conv8/weights"
          }
        }
      }
      attr {
        key: "_output_shapes"
        value {
          list {
            shape {
              dim {
                size: 3
              }
              dim {
                size: 3
              }
              dim {
                size: 8
              }
              dim {
                size: 16
              }
            }
          }
        }
      }
    }
    node {
      name: "conv8/weights/Initializer/random_uniform"
      op: "Add"
      input: "conv8/weights/Initializer/random_uniform/mul"
      input: "conv8/weights/Initializer/random_uniform/min"
      attr {
        key: "T"
        value {
          type: DT_FLOAT
        }
      }
      attr {
        key: "_class"
        value {
          list {
            s: "loc:@conv8/weights"
          }
        }
      }
      attr {
        key: "_output_shapes"
        value {
          list {
            shape {
              dim {
                size: 3
              }
              dim {
                size: 3
              }
              dim {
                size: 8
              }
              dim {
                size: 16
              }
            }
          }
        }
      }
    }
    node {
      name: "conv8/weights"
      op: "VariableV2"
      attr {
        key: "_class"
        value {
          list {
            s: "loc:@conv8/weights"
          }
        }
      }
      attr {
        key: "_output_shapes"
        value {
          list {
            shape {
              dim {
                size: 3
              }
              dim {
                size: 3
              }
              dim {
                size: 8
              }
              dim {
                size: 16
              }
            }
          }
        }
      }
      attr {
        key: "container"
        value {
          s: ""
        }
      }
      attr {
        key: "dtype"
        value {
          type: DT_FLOAT
        }
      }
      attr {
        key: "shape"
        value {
          shape {
            dim {
              size: 3
            }
            dim {
              size: 3
            }
            dim {
              size: 8
            }
            dim {
              size: 16
            }
          }
        }
      }
      attr {
        key: "shared_name"
        value {
          s: ""
        }
      }
    }
    node {
      name: "conv8/weights/Assign"
      op: "Assign"
      input: "conv8/weights"
      input: "conv8/weights/Initializer/random_uniform"
      attr {
        key: "T"
        value {
          type: DT_FLOAT
        }
      }
      attr {
        key: "_class"
        value {
          list {
            s: "loc:@conv8/weights"
          }
        }
      }
      attr {
        key: "_output_shapes"
        value {
          list {
            shape {
              dim {
                size: 3
              }
              dim {
                size: 3
              }
              dim {
                size: 8
              }
              dim {
                size: 16
              }
            }
          }
        }
      }
…
onv16/convolution:0\022-conv16/BatchNorm/cond/FusedBatchNorm/Switch:1"
        value: "\n!conv16/BatchNorm/cond/cond_text_1\022\037conv16/BatchNorm/cond/pred_id:0\032 conv16/BatchNorm/cond/switch_f:0*\333\010\n\034conv16/BatchNorm/beta/read:0\n/conv16/BatchNorm/cond/FusedBatchNorm_1/Switch:0\n1conv16/BatchNorm/cond/FusedBatchNorm_1/Switch_1:0\n1conv16/BatchNorm/cond/FusedBatchNorm_1/Switch_2:0\n1conv16/BatchNorm/cond/FusedBatchNorm_1/Switch_3:0\n1conv16/BatchNorm/cond/FusedBatchNorm_1/Switch_4:0\n(conv16/BatchNorm/cond/FusedBatchNorm_1:0\n(conv16/BatchNorm/cond/FusedBatchNorm_1:1\n(conv16/BatchNorm/cond/FusedBatchNorm_1:2\n(conv16/BatchNorm/cond/FusedBatchNorm_1:3\n(conv16/BatchNorm/cond/FusedBatchNorm_1:4\n\037conv16/BatchNorm/cond/pred_id:0\n conv16/BatchNorm/cond/switch_f:0\n\035conv16/BatchNorm/gamma/read:0\n#conv16/BatchNorm/moving_mean/read:0\n\'conv16/BatchNorm/moving_variance/read:0\n\024conv16/convolution:0\022Q\n\034conv16/BatchNorm/beta/read:0\0221conv16/BatchNorm/cond/FusedBatchNorm_1/Switch_2:0\022R\n\035conv16/BatchNorm/gamma/read:0\0221conv16/BatchNorm/cond/FusedBatchNorm_1/Switch_1:0\022G\n\024conv16/convolution:0\022/conv16/BatchNorm/cond/FusedBatchNorm_1/Switch:0\022X\n#conv16/BatchNorm/moving_mean/read:0\0221conv16/BatchNorm/cond/FusedBatchNorm_1/Switch_3:0\022\\\n\'conv16/BatchNorm/moving_variance/read:0\0221conv16/BatchNorm/cond/FusedBatchNorm_1/Switch_4:0"
        value: "\n!conv16/BatchNorm/cond_1/cond_text\022!conv16/BatchNorm/cond_1/pred_id:0\032\"conv16/BatchNorm/cond_1/switch_t:0 \001*\203\014\n\037conv16/BatchNorm/cond/Merge_1:0\n\037conv16/BatchNorm/cond/Merge_2:0\n0conv16/BatchNorm/cond_1/AssignMovingAvg/Switch:1\n/conv16/BatchNorm/cond_1/AssignMovingAvg/decay:0\n-conv16/BatchNorm/cond_1/AssignMovingAvg/mul:0\n4conv16/BatchNorm/cond_1/AssignMovingAvg/sub/Switch:1\n6conv16/BatchNorm/cond_1/AssignMovingAvg/sub/Switch_1:1\n-conv16/BatchNorm/cond_1/AssignMovingAvg/sub:0\n)conv16/BatchNorm/cond_1/AssignMovingAvg:0\n2conv16/BatchNorm/cond_1/AssignMovingAvg_1/Switch:1\n1conv16/BatchNorm/cond_1/AssignMovingAvg_1/decay:0\n/conv16/BatchNorm/cond_1/AssignMovingAvg_1/mul:0\n6conv16/BatchNorm/cond_1/AssignMovingAvg_1/sub/Switch:1\n8conv16/BatchNorm/cond_1/AssignMovingAvg_1/sub/Switch_1:1\n/conv16/BatchNorm/cond_1/AssignMovingAvg_1/sub:0\n+conv16/BatchNorm/cond_1/AssignMovingAvg_1:0\n!conv16/BatchNorm/cond_1/pred_id:0\n\"conv16/BatchNorm/cond_1/switch_t:0\n#conv16/BatchNorm/moving_mean/read:0\n\036conv16/BatchNorm/moving_mean:0\n\'conv16/BatchNorm/moving_variance/read:0\n\"conv16/BatchNorm/moving_variance:0\022Y\n\037conv16/BatchNorm/cond/Merge_1:0\0226conv16/BatchNorm/cond_1/AssignMovingAvg/sub/Switch_1:1\022[\n\037conv16/BatchNorm/cond/Merge_2:0\0228conv16/BatchNorm/cond_1/AssignMovingAvg_1/sub/Switch_1:1\022X\n\"conv16/BatchNorm/moving_variance:0\0222conv16/BatchNorm/cond_1/AssignMovingAvg_1/Switch:1\022R\n\036conv16/BatchNorm/moving_mean:0\0220conv16/BatchNorm/cond_1/AssignMovingAvg/Switch:1\022[\n#conv16/BatchNorm/moving_mean/read:0\0224conv16/BatchNorm/cond_1/AssignMovingAvg/sub/Switch:1\022a\n\'conv16/BatchNorm/moving_variance/read:0\0226conv16/BatchNorm/cond_1/AssignMovingAvg_1/sub/Switch:1"
        value: "\n#conv16/BatchNorm/cond_1/cond_text_1\022!conv16/BatchNorm/cond_1/pred_id:0\032\"conv16/BatchNorm/cond_1/switch_f:0*\277\003\n\"conv16/BatchNorm/cond_1/Switch_1:0\n\"conv16/BatchNorm/cond_1/Switch_1:1\n\"conv16/BatchNorm/cond_1/Switch_2:0\n\"conv16/BatchNorm/cond_1/Switch_2:1\n!conv16/BatchNorm/cond_1/pred_id:0\n\"conv16/BatchNorm/cond_1/switch_f:0\n#conv16/BatchNorm/moving_mean/read:0\n\'conv16/BatchNorm/moving_variance/read:0\022M\n\'conv16/BatchNorm/moving_variance/read:0\022\"conv16/BatchNorm/cond_1/Switch_2:0\022I\n#conv16/BatchNorm/moving_mean/read:0\022\"conv16/BatchNorm/cond_1/Switch_1:0"
        value: "\n\036conv8/BatchNorm/cond/cond_text\022\036conv8/BatchNorm/cond/pred_id:0\032\037conv8/BatchNorm/cond/switch_t:0 \001*\204\006\n\033conv8/BatchNorm/beta/read:0\n\034conv8/BatchNorm/cond/Const:0\n\036conv8/BatchNorm/cond/Const_1:0\n,conv8/BatchNorm/cond/FusedBatchNorm/Switch:1\n.conv8/BatchNorm/cond/FusedBatchNorm/Switch_1:1\n.conv8/BatchNorm/cond/FusedBatchNorm/Switch_2:1\n%conv8/BatchNorm/cond/FusedBatchNorm:0\n%conv8/BatchNorm/cond/FusedBatchNorm:1\n%conv8/BatchNorm/cond/FusedBatchNorm:2\n%conv8/BatchNorm/cond/FusedBatchNorm:3\n%conv8/BatchNorm/cond/FusedBatchNorm:4\n\036conv8/BatchNorm/cond/pred_id:0\n\037conv8/BatchNorm/cond/switch_t:0\n\034conv8/BatchNorm/gamma/read:0\n\023conv8/convolution:0\022C\n\023conv8/convolution:0\022,conv8/BatchNorm/cond/FusedBatchNorm/Switch:1\022N\n\034conv8/BatchNorm/gamma/read:0\022.conv8/BatchNorm/cond/FusedBatchNorm/Switch_1:1\022M\n\033conv8/BatchNorm/beta/read:0\022.conv8/BatchNorm/cond/FusedBatchNorm/Switch_2:1"
        value: "\n conv8/BatchNorm/cond/cond_text_1\022\036conv8/BatchNorm/cond/pred_id:0\032\037conv8/BatchNorm/cond/switch_f:0*\300\010\n\033conv8/BatchNorm/beta/read:0\n.conv8/BatchNorm/cond/FusedBatchNorm_1/Switch:0\n0conv8/BatchNorm/cond/FusedBatchNorm_1/Switch_1:0\n0conv8/BatchNorm/cond/FusedBatchNorm_1/Switch_2:0\n0conv8/BatchNorm/cond/FusedBatchNorm_1/Switch_3:0\n0conv8/BatchNorm/cond/FusedBatchNorm_1/Switch_4:0\n\'conv8/BatchNorm/cond/FusedBatchNorm_1:0\n\'conv8/BatchNorm/cond/FusedBatchNorm_1:1\n\'conv8/BatchNorm/cond/FusedBatchNorm_1:2\n\'conv8/BatchNorm/cond/FusedBatchNorm_1:3\n\'conv8/BatchNorm/cond/FusedBatchNorm_1:4\n\036conv8/BatchNorm/cond/pred_id:0\n\037conv8/BatchNorm/cond/switch_f:0\n\034conv8/BatchNorm/gamma/read:0\n\"conv8/BatchNorm/moving_mean/read:0\n&conv8/BatchNorm/moving_variance/read:0\n\023conv8/convolution:0\022Z\n&conv8/BatchNorm/moving_variance/read:0\0220conv8/BatchNorm/cond/FusedBatchNorm_1/Switch_4:0\022O\n\033conv8/BatchNorm/beta/read:0\0220conv8/BatchNorm/cond/FusedBatchNorm_1/Switch_2:0\022V\n\"conv8/BatchNorm/moving_mean/read:0\0220conv8/BatchNorm/cond/FusedBatchNorm_1/Switch_3:0\022P\n\034conv8/BatchNorm/gamma/read:0\0220conv8/BatchNorm/cond/FusedBatchNorm_1/Switch_1:0\022E\n\023conv8/convolution:0\022.conv8/BatchNorm/cond/FusedBatchNorm_1/Switch:0"
        value: "\n conv8/BatchNorm/cond_1/cond_text\022 conv8/BatchNorm/cond_1/pred_id:0\032!conv8/BatchNorm/cond_1/switch_t:0 \001*\341\013\n\036conv8/BatchNorm/cond/Merge_1:0\n\036conv8/BatchNorm/cond/Merge_2:0\n/conv8/BatchNorm/cond_1/AssignMovingAvg/Switch:1\n.conv8/BatchNorm/cond_1/AssignMovingAvg/decay:0\n,conv8/BatchNorm/cond_1/AssignMovingAvg/mul:0\n3conv8/BatchNorm/cond_1/AssignMovingAvg/sub/Switch:1\n5conv8/BatchNorm/cond_1/AssignMovingAvg/sub/Switch_1:1\n,conv8/BatchNorm/cond_1/AssignMovingAvg/sub:0\n(conv8/BatchNorm/cond_1/AssignMovingAvg:0\n1conv8/BatchNorm/cond_1/AssignMovingAvg_1/Switch:1\n0conv8/BatchNorm/cond_1/AssignMovingAvg_1/decay:0\n.conv8/BatchNorm/cond_1/AssignMovingAvg_1/mul:0\n5conv8/BatchNorm/cond_1/AssignMovingAvg_1/sub/Switch:1\n7conv8/BatchNorm/cond_1/AssignMovingAvg_1/sub/Switch_1:1\n.conv8/BatchNorm/cond_1/AssignMovingAvg_1/sub:0\n*conv8/BatchNorm/cond_1/AssignMovingAvg_1:0\n conv8/BatchNorm/cond_1/pred_id:0\n!conv8/BatchNorm/cond_1/switch_t:0\n\"conv8/BatchNorm/moving_mean/read:0\n\035conv8/BatchNorm/moving_mean:0\n&conv8/BatchNorm/moving_variance/read:0\n!conv8/BatchNorm/moving_variance:0\022Y\n\036conv8/BatchNorm/cond/Merge_2:0\0227conv8/BatchNorm/cond_1/AssignMovingAvg_1/sub/Switch_1:1\022V\n!conv8/BatchNorm/moving_variance:0\0221conv8/BatchNorm/cond_1/AssignMovingAvg_1/Switch:1\022P\n\035conv8/BatchNorm/moving_mean:0\022/conv8/BatchNorm/cond_1/AssignMovingAvg/Switch:1\022Y\n\"conv8/BatchNorm/moving_mean/read:0\0223conv8/BatchNorm/cond_1/AssignMovingAvg/sub/Switch:1\022_\n&conv8/BatchNorm/moving_variance/read:0\0225conv8/BatchNorm/cond_1/AssignMovingAvg_1/sub/Switch:1\022W\n\036conv8/BatchNorm/cond/Merge_1:0\0225conv8/BatchNorm/cond_1/AssignMovingAvg/sub/Switch_1:1"
        value: "\n\"conv8/BatchNorm/cond_1/cond_text_1\022 conv8/BatchNorm/cond_1/pred_id:0\032!conv8/BatchNorm/cond_1/switch_f:0*\263\003\n!conv8/BatchNorm/cond_1/Switch_1:0\n!conv8/BatchNorm/cond_1/Switch_1:1\n!conv8/BatchNorm/cond_1/Switch_2:0\n!conv8/BatchNorm/cond_1/Switch_2:1\n conv8/BatchNorm/cond_1/pred_id:0\n!conv8/BatchNorm/cond_1/switch_f:0\n\"conv8/BatchNorm/moving_mean/read:0\n&conv8/BatchNorm/moving_variance/read:0\022K\n&conv8/BatchNorm/moving_variance/read:0\022!conv8/BatchNorm/cond_1/Switch_2:0\022G\n\"conv8/BatchNorm/moving_mean/read:0\022!conv8/BatchNorm/cond_1/Switch_1:0"
        value: "\n\036conv4/BatchNorm/cond/cond_text\022\036conv4/BatchNorm/cond/pred_id:0\032\037conv4/BatchNorm/cond/switch_t:0 \001*\204\006\n\033conv4/BatchNorm/beta/read:0\n\034conv4/BatchNorm/cond/Const:0\n\036conv4/BatchNorm/cond/Const_1:0\n,conv4/BatchNorm/cond/FusedBatchNorm/Switch:1\n.conv4/BatchNorm/cond/FusedBatchNorm/Switch_1:1\n.conv4/BatchNorm/cond/FusedBatchNorm/Switch_2:1\n%conv4/BatchNorm/cond/FusedBatchNorm:0\n%conv4/BatchNorm/cond/FusedBatchNorm:1\n%conv4/BatchNorm/cond/FusedBatchNorm:2\n%conv4/BatchNorm/cond/FusedBatchNorm:3\n%conv4/BatchNorm/cond/FusedBatchNorm:4\n\036conv4/BatchNorm/cond/pred_id:0\n\037conv4/BatchNorm/cond/switch_t:0\n\034conv4/BatchNorm/gamma/read:0\n\023conv4/convolution:0\022C\n\023conv4/convolution:0\022,conv4/BatchNorm/cond/FusedBatchNorm/Switch:1\022M\n\033conv4/BatchNorm/beta/read:0\022.conv4/BatchNorm/cond/FusedBatchNorm/Switch_2:1\022N\n\034conv4/BatchNorm/gamma/read:0\022.conv4/BatchNorm/cond/FusedBatchNorm/Switch_1:1"
        value: "\n conv4/BatchNorm/cond/cond_text_1\022\036conv4/BatchNorm/cond/pred_id:0\032\037conv4/BatchNorm/cond/switch_f:0*\300\010\n\033conv4/BatchNorm/beta/read:0\n.conv4/BatchNorm/cond/FusedBatchNorm_1/Switch:0\n0conv4/BatchNorm/cond/FusedBatchNorm_1/Switch_1:0\n0conv4/BatchNorm/cond/FusedBatchNorm_1/Switch_2:0\n0conv4/BatchNorm/cond/FusedBatchNorm_1/Switch_3:0\n0conv4/BatchNorm/cond/FusedBatchNorm_1/Switch_4:0\n\'conv4/BatchNorm/cond/FusedBatchNorm_1:0\n\'conv4/BatchNorm/cond/FusedBatchNorm_1:1\n\'conv4/BatchNorm/cond/FusedBatchNorm_1:2\n\'conv4/BatchNorm/cond/FusedBatchNorm_1:3\n\'conv4/BatchNorm/cond/FusedBatchNorm_1:4\n\036conv4/BatchNorm/cond/pred_id:0\n\037conv4/BatchNorm/cond/switch_f:0\n\034conv4/BatchNorm/gamma/read:0\n\"conv4/BatchNorm/moving_mean/read:0\n&conv4/BatchNorm/moving_variance/read:0\n\023conv4/convolution:0\022E\n\023conv4/convolution:0\022.conv4/BatchNorm/cond/FusedBatchNorm_1/Switch:0\022O\n\033conv4/BatchNorm/beta/read:0\0220conv4/BatchNorm/cond/FusedBatchNorm_1/Switch_2:0\022V\n\"conv4/BatchNorm/moving_mean/read:0\0220conv4/BatchNorm/cond/FusedBatchNorm_1/Switch_3:0\022Z\n&conv4/BatchNorm/moving_variance/read:0\0220conv4/BatchNorm/cond/FusedBatchNorm_1/Switch_4:0\022P\n\034conv4/BatchNorm/gamma/read:0\0220conv4/BatchNorm/cond/FusedBatchNorm_1/Switch_1:0"
        value: "\n conv4/BatchNorm/cond_1/cond_text\022 conv4/BatchNorm/cond_1/pred_id:0\032!conv4/BatchNorm/cond_1/switch_t:0 \001*\341\013\n\036conv4/BatchNorm/cond/Merge_1:0\n\036conv4/BatchNorm/cond/Merge_2:0\n/conv4/BatchNorm/cond_1/AssignMovingAvg/Switch:1\n.conv4/BatchNorm/cond_1/AssignMovingAvg/decay:0\n,conv4/BatchNorm/cond_1/AssignMovingAvg/mul:0\n3conv4/BatchNorm/cond_1/AssignMovingAvg/sub/Switch:1\n5conv4/BatchNorm/cond_1/AssignMovingAvg/sub/Switch_1:1\n,conv4/BatchNorm/cond_1/AssignMovingAvg/sub:0\n(conv4/BatchNorm/cond_1/AssignMovingAvg:0\n1conv4/BatchNorm/cond_1/AssignMovingAvg_1/Switch:1\n0conv4/BatchNorm/cond_1/AssignMovingAvg_1/decay:0\n.conv4/BatchNorm/cond_1/AssignMovingAvg_1/mul:0\n5conv4/BatchNorm/cond_1/AssignMovingAvg_1/sub/Switch:1\n7conv4/BatchNorm/cond_1/AssignMovingAvg_1/sub/Switch_1:1\n.conv4/BatchNorm/cond_1/AssignMovingAvg_1/sub:0\n*conv4/BatchNorm/cond_1/AssignMovingAvg_1:0\n conv4/BatchNorm/cond_1/pred_id:0\n!conv4/BatchNorm/cond_1/switch_t:0\n\"conv4/BatchNorm/moving_mean/read:0\n\035conv4/BatchNorm/moving_mean:0\n&conv4/BatchNorm/moving_variance/read:0\n!conv4/BatchNorm/moving_variance:0\022Y\n\036conv4/BatchNorm/cond/Merge_2:0\0227conv4/BatchNorm/cond_1/AssignMovingAvg_1/sub/Switch_1:1\022_\n&conv4/BatchNorm/moving_variance/read:0\0225conv4/BatchNorm/cond_1/AssignMovingAvg_1/sub/Switch:1\022Y\n\"conv4/BatchNorm/moving_mean/read:0\0223conv4/BatchNorm/cond_1/AssignMovingAvg/sub/Switch:1\022V\n!conv4/BatchNorm/moving_variance:0\0221conv4/BatchNorm/cond_1/AssignMovingAvg_1/Switch:1\022P\n\035conv4/BatchNorm/moving_mean:0\022/conv4/BatchNorm/cond_1/AssignMovingAvg/Switch:1\022W\n\036conv4/BatchNorm/cond/Merge_1:0\0225conv4/BatchNorm/cond_1/AssignMovingAvg/sub/Switch_1:1"
        value: "\n\"conv4/BatchNorm/cond_1/cond_text_1\022 conv4/BatchNorm/cond_1/pred_id:0\032!conv4/BatchNorm/cond_1/switch_f:0*\263\003\n!conv4/BatchNorm/cond_1/Switch_1:0\n!conv4/BatchNorm/cond_1/Switch_1:1\n!conv4/BatchNorm/cond_1/Switch_2:0\n!conv4/BatchNorm/cond_1/Switch_2:1\n conv4/BatchNorm/cond_1/pred_id:0\n!conv4/BatchNorm/cond_1/switch_f:0\n\"conv4/BatchNorm/moving_mean/read:0\n&conv4/BatchNorm/moving_variance/read:0\022K\n&conv4/BatchNorm/moving_variance/read:0\022!conv4/BatchNorm/cond_1/Switch_2:0\022G\n\"conv4/BatchNorm/moving_mean/read:0\022!conv4/BatchNorm/cond_1/Switch_1:0"
        value: "\n\036fc256/BatchNorm/cond/cond_text\022\036fc256/BatchNorm/cond/pred_id:0\032\037fc256/BatchNorm/cond/switch_t:0 \001*\220\006\n\031fc256/BatchNorm/Reshape:0\n\033fc256/BatchNorm/beta/read:0\n\034fc256/BatchNorm/cond/Const:0\n\036fc256/BatchNorm/cond/Const_1:0\n,fc256/BatchNorm/cond/FusedBatchNorm/Switch:1\n.fc256/BatchNorm/cond/FusedBatchNorm/Switch_1:1\n.fc256/BatchNorm/cond/FusedBatchNorm/Switch_2:1\n%fc256/BatchNorm/cond/FusedBatchNorm:0\n%fc256/BatchNorm/cond/FusedBatchNorm:1\n%fc256/BatchNorm/cond/FusedBatchNorm:2\n%fc256/BatchNorm/cond/FusedBatchNorm:3\n%fc256/BatchNorm/cond/FusedBatchNorm:4\n\036fc256/BatchNorm/cond/pred_id:0\n\037fc256/BatchNorm/cond/switch_t:0\n\034fc256/BatchNorm/gamma/read:0\022I\n\031fc256/BatchNorm/Reshape:0\022,fc256/BatchNorm/cond/FusedBatchNorm/Switch:1\022M\n\033fc256/BatchNorm/beta/read:0\022.fc256/BatchNorm/cond/FusedBatchNorm/Switch_2:1\022N\n\034fc256/BatchNorm/gamma/read:0\022.fc256/BatchNorm/cond/FusedBatchNorm/Switch_1:1"
        value: "\n fc256/BatchNorm/cond/cond_text_1\022\036fc256/BatchNorm/cond/pred_id:0\032\037fc256/BatchNorm/cond/switch_f:0*\314\010\n\031fc256/BatchNorm/Reshape:0\n\033fc256/BatchNorm/beta/read:0\n.fc256/BatchNorm/cond/FusedBatchNorm_1/Switch:0\n0fc256/BatchNorm/cond/FusedBatchNorm_1/Switch_1:0\n0fc256/BatchNorm/cond/FusedBatchNorm_1/Switch_2:0\n0fc256/BatchNorm/cond/FusedBatchNorm_1/Switch_3:0\n0fc256/BatchNorm/cond/FusedBatchNorm_1/Switch_4:0\n\'fc256/BatchNorm/cond/FusedBatchNorm_1:0\n\'fc256/BatchNorm/cond/FusedBatchNorm_1:1\n\'fc256/BatchNorm/cond/FusedBatchNorm_1:2\n\'fc256/BatchNorm/cond/FusedBatchNorm_1:3\n\'fc256/BatchNorm/cond/FusedBatchNorm_1:4\n\036fc256/BatchNorm/cond/pred_id:0\n\037fc256/BatchNorm/cond/switch_f:0\n\034fc256/BatchNorm/gamma/read:0\n\"fc256/BatchNorm/moving_mean/read:0\n&fc256/BatchNorm/moving_variance/read:0\022K\n\031fc256/BatchNorm/Reshape:0\022.fc256/BatchNorm/cond/FusedBatchNorm_1/Switch:0\022O\n\033fc256/BatchNorm/beta/read:0\0220fc256/BatchNorm/cond/FusedBatchNorm_1/Switch_2:0\022V\n\"fc256/BatchNorm/moving_mean/read:0\0220fc256/BatchNorm/cond/FusedBatchNorm_1/Switch_3:0\022Z\n&fc256/BatchNorm/moving_variance/read:0\0220fc256/BatchNorm/cond/FusedBatchNorm_1/Switch_4:0\022P\n\034fc256/BatchNorm/gamma/read:0\0220fc256/BatchNorm/cond/FusedBatchNorm_1/Switch_1:0"
        value: "\n fc256/BatchNorm/cond_1/cond_text\022 fc256/BatchNorm/cond_1/pred_id:0\032!fc256/BatchNorm/cond_1/switch_t:0 \001*\341\013\n\036fc256/BatchNorm/cond/Merge_1:0\n\036fc256/BatchNorm/cond/Merge_2:0\n/fc256/BatchNorm/cond_1/AssignMovingAvg/Switch:1\n.fc256/BatchNorm/cond_1/AssignMovingAvg/decay:0\n,fc256/BatchNorm/cond_1/AssignMovingAvg/mul:0\n3fc256/BatchNorm/cond_1/AssignMovingAvg/sub/Switch:1\n5fc256/BatchNorm/cond_1/AssignMovingAvg/sub/Switch_1:1\n,fc256/BatchNorm/cond_1/AssignMovingAvg/sub:0\n(fc256/BatchNorm/cond_1/AssignMovingAvg:0\n1fc256/BatchNorm/cond_1/AssignMovingAvg_1/Switch:1\n0fc256/BatchNorm/cond_1/AssignMovingAvg_1/decay:0\n.fc256/BatchNorm/cond_1/AssignMovingAvg_1/mul:0\n5fc256/BatchNorm/cond_1/AssignMovingAvg_1/sub/Switch:1\n7fc256/BatchNorm/cond_1/AssignMovingAvg_1/sub/Switch_1:1\n.fc256/BatchNorm/cond_1/AssignMovingAvg_1/sub:0\n*fc256/BatchNorm/cond_1/AssignMovingAvg_1:0\n fc256/BatchNorm/cond_1/pred_id:0\n!fc256/BatchNorm/cond_1/switch_t:0\n\"fc256/BatchNorm/moving_mean/read:0\n\035fc256/BatchNorm/moving_mean:0\n&fc256/BatchNorm/moving_variance/read:0\n!fc256/BatchNorm/moving_variance:0\022P\n\035fc256/BatchNorm/moving_mean:0\022/fc256/BatchNorm/cond_1/AssignMovingAvg/Switch:1\022V\n!fc256/BatchNorm/moving_variance:0\0221fc256/BatchNorm/cond_1/AssignMovingAvg_1/Switch:1\022_\n&fc256/BatchNorm/moving_variance/read:0\0225fc256/BatchNorm/cond_1/AssignMovingAvg_1/sub/Switch:1\022Y\n\"fc256/BatchNorm/moving_mean/read:0\0223fc256/BatchNorm/cond_1/AssignMovingAvg/sub/Switch:1\022Y\n\036fc256/BatchNorm/cond/Merge_2:0\0227fc256/BatchNorm/cond_1/AssignMovingAvg_1/sub/Switch_1:1\022W\n\036fc256/BatchNorm/cond/Merge_1:0\0225fc256/BatchNorm/cond_1/AssignMovingAvg/sub/Switch_1:1"
        value: "\n\"fc256/BatchNorm/cond_1/cond_text_1\022 fc256/BatchNorm/cond_1/pred_id:0\032!fc256/BatchNorm/cond_1/switch_f:0*\263\003\n!fc256/BatchNorm/cond_1/Switch_1:0\n!fc256/BatchNorm/cond_1/Switch_1:1\n!fc256/BatchNorm/cond_1/Switch_2:0\n!fc256/BatchNorm/cond_1/Switch_2:1\n fc256/BatchNorm/cond_1/pred_id:0\n!fc256/BatchNorm/cond_1/switch_f:0\n\"fc256/BatchNorm/moving_mean/read:0\n&fc256/BatchNorm/moving_variance/read:0\022G\n\"fc256/BatchNorm/moving_mean/read:0\022!fc256/BatchNorm/cond_1/Switch_1:0\022K\n&fc256/BatchNorm/moving_variance/read:0\022!fc256/BatchNorm/cond_1/Switch_2:0"
        value: "\n deconv8/BatchNorm/cond/cond_text\022 deconv8/BatchNorm/cond/pred_id:0\032!deconv8/BatchNorm/cond/switch_t:0 \001*\270\006\n\035deconv8/BatchNorm/beta/read:0\n\036deconv8/BatchNorm/cond/Const:0\n deconv8/BatchNorm/cond/Const_1:0\n.deconv8/BatchNorm/cond/FusedBatchNorm/Switch:1\n0deconv8/BatchNorm/cond/FusedBatchNorm/Switch_1:1\n0deconv8/BatchNorm/cond/FusedBatchNorm/Switch_2:1\n\'deconv8/BatchNorm/cond/FusedBatchNorm:0\n\'deconv8/BatchNorm/cond/FusedBatchNorm:1\n\'deconv8/BatchNorm/cond/FusedBatchNorm:2\n\'deconv8/BatchNorm/cond/FusedBatchNorm:3\n\'deconv8/BatchNorm/cond/FusedBatchNorm:4\n deconv8/BatchNorm/cond/pred_id:0\n!deconv8/BatchNorm/cond/switch_t:0\n\036deconv8/BatchNorm/gamma/read:0\n\032deconv8/conv2d_transpose:0\022Q\n\035deconv8/BatchNorm/beta/read:0\0220deconv8/BatchNorm/cond/FusedBatchNorm/Switch_2:1\022R\n\036deconv8/BatchNorm/gamma/read:0\0220deconv8/BatchNorm/cond/FusedBatchNorm/Switch_1:1\022L\n\032deconv8/conv2d_transpose:0\022.deconv8/BatchNorm/cond/FusedBatchNorm/Switch:1"
        value: "\n\"deconv8/BatchNorm/cond/cond_text_1\022 deconv8/BatchNorm/cond/pred_id:0\032!deconv8/BatchNorm/cond/switch_f:0*\200\t\n\035deconv8/BatchNorm/beta/read:0\n0deconv8/BatchNorm/cond/FusedBatchNorm_1/Switch:0\n2deconv8/BatchNorm/cond/FusedBatchNorm_1/Switch_1:0\n2deconv8/BatchNorm/cond/FusedBatchNorm_1/Switch_2:0\n2deconv8/BatchNorm/cond/FusedBatchNorm_1/Switch_3:0\n2deconv8/BatchNorm/cond/FusedBatchNorm_1/Switch_4:0\n)deconv8/BatchNorm/cond/FusedBatchNorm_1:0\n)deconv8/BatchNorm/cond/FusedBatchNorm_1:1\n)deconv8/BatchNorm/cond/FusedBatchNorm_1:2\n)deconv8/BatchNorm/cond/FusedBatchNorm_1:3\n)deconv8/BatchNorm/cond/FusedBatchNorm_1:4\n deconv8/BatchNorm/cond/pred_id:0\n!deconv8/BatchNorm/cond/switch_f:0\n\036deconv8/BatchNorm/gamma/read:0\n$deconv8/BatchNorm/moving_mean/read:0\n(deconv8/BatchNorm/moving_variance/read:0\n\032deconv8/conv2d_transpose:0\022S\n\035deconv8/BatchNorm/beta/read:0\0222deconv8/BatchNorm/cond/FusedBatchNorm_1/Switch_2:0\022T\n\036deconv8/BatchNorm/gamma/read:0\0222deconv8/BatchNorm/cond/FusedBatchNorm_1/Switch_1:0\022Z\n$deconv8/BatchNorm/moving_mean/read:0\0222deconv8/BatchNorm/cond/FusedBatchNorm_1/Switch_3:0\022^\n(deconv8/BatchNorm/moving_variance/read:0\0222deconv8/BatchNorm/cond/FusedBatchNorm_1/Switch_4:0\022N\n\032deconv8/conv2d_transpose:0\0220deconv8/BatchNorm/cond/FusedBatchNorm_1/Switch:0"
        value: "\n\"deconv8/BatchNorm/cond_1/cond_text\022\"deconv8/BatchNorm/cond_1/pred_id:0\032#deconv8/BatchNorm/cond_1/switch_t:0 \001*\245\014\n deconv8/BatchNorm/cond/Merge_1:0\n deconv8/BatchNorm/cond/Merge_2:0\n1deconv8/BatchNorm/cond_1/AssignMovingAvg/Switch:1\n0deconv8/BatchNorm/cond_1/AssignMovingAvg/decay:0\n.deconv8/BatchNorm/cond_1/AssignMovingAvg/mul:0\n5deconv8/BatchNorm/cond_1/AssignMovingAvg/sub/Switch:1\n7deconv8/BatchNorm/cond_1/AssignMovingAvg/sub/Switch_1:1\n.deconv8/BatchNorm/cond_1/AssignMovingAvg/sub:0\n*deconv8/BatchNorm/cond_1/AssignMovingAvg:0\n3deconv8/BatchNorm/cond_1/AssignMovingAvg_1/Switch:1\n2deconv8/BatchNorm/cond_1/AssignMovingAvg_1/decay:0\n0deconv8/BatchNorm/cond_1/AssignMovingAvg_1/mul:0\n7deconv8/BatchNorm/cond_1/AssignMovingAvg_1/sub/Switch:1\n9deconv8/BatchNorm/cond_1/AssignMovingAvg_1/sub/Switch_1:1\n0deconv8/BatchNorm/cond_1/AssignMovingAvg_1/sub:0\n,deconv8/BatchNorm/cond_1/AssignMovingAvg_1:0\n\"deconv8/BatchNorm/cond_1/pred_id:0\n#deconv8/BatchNorm/cond_1/switch_t:0\n$deconv8/BatchNorm/moving_mean/read:0\n\037deconv8/BatchNorm/moving_mean:0\n(deconv8/BatchNorm/moving_variance/read:0\n#deconv8/BatchNorm/moving_variance:0\022]\n deconv8/BatchNorm/cond/Merge_2:0\0229deconv8/BatchNorm/cond_1/AssignMovingAvg_1/sub/Switch_1:1\022]\n$deconv8/BatchNorm/moving_mean/read:0\0225deconv8/BatchNorm/cond_1/AssignMovingAvg/sub/Switch:1\022c\n(deconv8/BatchNorm/moving_variance/read:0\0227deconv8/BatchNorm/cond_1/AssignMovingAvg_1/sub/Switch:1\022[\n deconv8/BatchNorm/cond/Merge_1:0\0227deconv8/BatchNorm/cond_1/AssignMovingAvg/sub/Switch_1:1\022T\n\037deconv8/BatchNorm/moving_mean:0\0221deconv8/BatchNorm/cond_1/AssignMovingAvg/Switch:1\022Z\n#deconv8/BatchNorm/moving_variance:0\0223deconv8/BatchNorm/cond_1/AssignMovingAvg_1/Switch:1"
        value: "\n$deconv8/BatchNorm/cond_1/cond_text_1\022\"deconv8/BatchNorm/cond_1/pred_id:0\032#deconv8/BatchNorm/cond_1/switch_f:0*\313\003\n#deconv8/BatchNorm/cond_1/Switch_1:0\n#deconv8/BatchNorm/cond_1/Switch_1:1\n#deconv8/BatchNorm/cond_1/Switch_2:0\n#deconv8/BatchNorm/cond_1/Switch_2:1\n\"deconv8/BatchNorm/cond_1/pred_id:0\n#deconv8/BatchNorm/cond_1/switch_f:0\n$deconv8/BatchNorm/moving_mean/read:0\n(deconv8/BatchNorm/moving_variance/read:0\022K\n$deconv8/BatchNorm/moving_mean/read:0\022#deconv8/BatchNorm/cond_1/Switch_1:0\022O\n(deconv8/BatchNorm/moving_variance/read:0\022#deconv8/BatchNorm/cond_1/Switch_2:0"
        value: "\n!deconv16/BatchNorm/cond/cond_text\022!deconv16/BatchNorm/cond/pred_id:0\032\"deconv16/BatchNorm/cond/switch_t:0 \001*\315\006\n\036deconv16/BatchNorm/beta/read:0\n\037deconv16/BatchNorm/cond/Const:0\n!deconv16/BatchNorm/cond/Const_1:0\n/deconv16/BatchNorm/cond/FusedBatchNorm/Switch:1\n1deconv16/BatchNorm/cond/FusedBatchNorm/Switch_1:1\n1deconv16/BatchNorm/cond/FusedBatchNorm/Switch_2:1\n(deconv16/BatchNorm/cond/FusedBatchNorm:0\n(deconv16/BatchNorm/cond/FusedBatchNorm:1\n(deconv16/BatchNorm/cond/FusedBatchNorm:2\n(deconv16/BatchNorm/cond/FusedBatchNorm:3\n(deconv16/BatchNorm/cond/FusedBatchNorm:4\n!deconv16/BatchNorm/cond/pred_id:0\n\"deconv16/BatchNorm/cond/switch_t:0\n\037deconv16/BatchNorm/gamma/read:0\n\033deconv16/conv2d_transpose:0\022S\n\036deconv16/BatchNorm/beta/read:0\0221deconv16/BatchNorm/cond/FusedBatchNorm/Switch_2:1\022N\n\033deconv16/conv2d_transpose:0\022/deconv16/BatchNorm/cond/FusedBatchNorm/Switch:1\022T\n\037deconv16/BatchNorm/gamma/read:0\0221deconv16/BatchNorm/cond/FusedBatchNorm/Switch_1:1"
        value: "\n#deconv16/BatchNorm/cond/cond_text_1\022!deconv16/BatchNorm/cond/pred_id:0\032\"deconv16/BatchNorm/cond/switch_f:0*\233\t\n\036deconv16/BatchNorm/beta/read:0\n1deconv16/BatchNorm/cond/FusedBatchNorm_1/Switch:0\n3deconv16/BatchNorm/cond/FusedBatchNorm_1/Switch_1:0\n3deconv16/BatchNorm/cond/FusedBatchNorm_1/Switch_2:0\n3deconv16/BatchNorm/cond/FusedBatchNorm_1/Switch_3:0\n3deconv16/BatchNorm/cond/FusedBatchNorm_1/Switch_4:0\n*deconv16/BatchNorm/cond/FusedBatchNorm_1:0\n*deconv16/BatchNorm/cond/FusedBatchNorm_1:1\n*deconv16/BatchNorm/cond/FusedBatchNorm_1:2\n*deconv16/BatchNorm/cond/FusedBatchNorm_1:3\n*deconv16/BatchNorm/cond/FusedBatchNorm_1:4\n!deconv16/BatchNorm/cond/pred_id:0\n\"deconv16/BatchNorm/cond/switch_f:0\n\037deconv16/BatchNorm/gamma/read:0\n%deconv16/BatchNorm/moving_mean/read:0\n)deconv16/BatchNorm/moving_variance/read:0\n\033deconv16/conv2d_transpose:0\022U\n\036deconv16/BatchNorm/beta/read:0\0223deconv16/BatchNorm/cond/FusedBatchNorm_1/Switch_2:0\022`\n)deconv16/BatchNorm/moving_variance/read:0\0223deconv16/BatchNorm/cond/FusedBatchNorm_1/Switch_4:0\022\\\n%deconv16/BatchNorm/moving_mean/read:0\0223deconv16/BatchNorm/cond/FusedBatchNorm_1/Switch_3:0\022P\n\033deconv16/conv2d_transpose:0\0221deconv16/BatchNorm/cond/FusedBatchNorm_1/Switch:0\022V\n\037deconv16/BatchNorm/gamma/read:0\0223deconv16/BatchNorm/cond/FusedBatchNorm_1/Switch_1:0"
        value: "\n#deconv16/BatchNorm/cond_1/cond_text\022#deconv16/BatchNorm/cond_1/pred_id:0\032$deconv16/BatchNorm/cond_1/switch_t:0 \001*\307\014\n!deconv16/BatchNorm/cond/Merge_1:0\n!deconv16/BatchNorm/cond/Merge_2:0\n2deconv16/BatchNorm/cond_1/AssignMovingAvg/Switch:1\n1deconv16/BatchNorm/cond_1/AssignMovingAvg/decay:0\n/deconv16/BatchNorm/cond_1/AssignMovingAvg/mul:0\n6deconv16/BatchNorm/cond_1/AssignMovingAvg/sub/Switch:1\n8deconv16/BatchNorm/cond_1/AssignMovingAvg/sub/Switch_1:1\n/deconv16/BatchNorm/cond_1/AssignMovingAvg/sub:0\n+deconv16/BatchNorm/cond_1/AssignMovingAvg:0\n4deconv16/BatchNorm/cond_1/AssignMovingAvg_1/Switch:1\n3deconv16/BatchNorm/cond_1/AssignMovingAvg_1/decay:0\n1deconv16/BatchNorm/cond_1/AssignMovingAvg_1/mul:0\n8deconv16/BatchNorm/cond_1/AssignMovingAvg_1/sub/Switch:1\n:deconv16/BatchNorm/cond_1/AssignMovingAvg_1/sub/Switch_1:1\n1deconv16/BatchNorm/cond_1/AssignMovingAvg_1/sub:0\n-deconv16/BatchNorm/cond_1/AssignMovingAvg_1:0\n#deconv16/BatchNorm/cond_1/pred_id:0\n$deconv16/BatchNorm/cond_1/switch_t:0\n%deconv16/BatchNorm/moving_mean/read:0\n deconv16/BatchNorm/moving_mean:0\n)deconv16/BatchNorm/moving_variance/read:0\n$deconv16/BatchNorm/moving_variance:0\022_\n!deconv16/BatchNorm/cond/Merge_2:0\022:deconv16/BatchNorm/cond_1/AssignMovingAvg_1/sub/Switch_1:1\022_\n%deconv16/BatchNorm/moving_mean/read:0\0226deconv16/BatchNorm/cond_1/AssignMovingAvg/sub/Switch:1\022e\n)deconv16/BatchNorm/moving_variance/read:0\0228deconv16/BatchNorm/cond_1/AssignMovingAvg_1/sub/Switch:1\022\\\n$deconv16/BatchNorm/moving_variance:0\0224deconv16/BatchNorm/cond_1/AssignMovingAvg_1/Switch:1\022V\n deconv16/BatchNorm/moving_mean:0\0222deconv16/BatchNorm/cond_1/AssignMovingAvg/Switch:1\022]\n!deconv16/BatchNorm/cond/Merge_1:0\0228deconv16/BatchNorm/cond_1/AssignMovingAvg/sub/Switch_1:1"
        value: "\n%deconv16/BatchNorm/cond_1/cond_text_1\022#deconv16/BatchNorm/cond_1/pred_id:0\032$deconv16/BatchNorm/cond_1/switch_f:0*\327\003\n$deconv16/BatchNorm/cond_1/Switch_1:0\n$deconv16/BatchNorm/cond_1/Switch_1:1\n$deconv16/BatchNorm/cond_1/Switch_2:0\n$deconv16/BatchNorm/cond_1/Switch_2:1\n#deconv16/BatchNorm/cond_1/pred_id:0\n$deconv16/BatchNorm/cond_1/switch_f:0\n%deconv16/BatchNorm/moving_mean/read:0\n)deconv16/BatchNorm/moving_variance/read:0\022M\n%deconv16/BatchNorm/moving_mean/read:0\022$deconv16/BatchNorm/cond_1/Switch_1:0\022Q\n)deconv16/BatchNorm/moving_variance/read:0\022$deconv16/BatchNorm/cond_1/Switch_2:0"
        value: "\n!deconv32/BatchNorm/cond/cond_text\022!deconv32/BatchNorm/cond/pred_id:0\032\"deconv32/BatchNorm/cond/switch_t:0 \001*\315\006\n\036deconv32/BatchNorm/beta/read:0\n\037deconv32/BatchNorm/cond/Const:0\n!deconv32/BatchNorm/cond/Const_1:0\n/deconv32/BatchNorm/cond/FusedBatchNorm/Switch:1\n1deconv32/BatchNorm/cond/FusedBatchNorm/Switch_1:1\n1deconv32/BatchNorm/cond/FusedBatchNorm/Switch_2:1\n(deconv32/BatchNorm/cond/FusedBatchNorm:0\n(deconv32/BatchNorm/cond/FusedBatchNorm:1\n(deconv32/BatchNorm/cond/FusedBatchNorm:2\n(deconv32/BatchNorm/cond/FusedBatchNorm:3\n(deconv32/BatchNorm/cond/FusedBatchNorm:4\n!deconv32/BatchNorm/cond/pred_id:0\n\"deconv32/BatchNorm/cond/switch_t:0\n\037deconv32/BatchNorm/gamma/read:0\n\033deconv32/conv2d_transpose:0\022T\n\037deconv32/BatchNorm/gamma/read:0\0221deconv32/BatchNorm/cond/FusedBatchNorm/Switch_1:1\022S\n\036deconv32/BatchNorm/beta/read:0\0221deconv32/BatchNorm/cond/FusedBatchNorm/Switch_2:1\022N\n\033deconv32/conv2d_transpose:0\022/deconv32/BatchNorm/cond/FusedBatchNorm/Switch:1"
        value: "\n#deconv32/BatchNorm/cond/cond_text_1\022!deconv32/BatchNorm/cond/pred_id:0\032\"deconv32/BatchNorm/cond/switch_f:0*\233\t\n\036deconv32/BatchNorm/beta/read:0\n1deconv32/BatchNorm/cond/FusedBatchNorm_1/Switch:0\n3deconv32/BatchNorm/cond/FusedBatchNorm_1/Switch_1:0\n3deconv32/BatchNorm/cond/FusedBatchNorm_1/Switch_2:0\n3deconv32/BatchNorm/cond/FusedBatchNorm_1/Switch_3:0\n3deconv32/BatchNorm/cond/FusedBatchNorm_1/Switch_4:0\n*deconv32/BatchNorm/cond/FusedBatchNorm_1:0\n*deconv32/BatchNorm/cond/FusedBatchNorm_1:1\n*deconv32/BatchNorm/cond/FusedBatchNorm_1:2\n*deconv32/BatchNorm/cond/FusedBatchNorm_1:3\n*deconv32/BatchNorm/cond/FusedBatchNorm_1:4\n!deconv32/BatchNorm/cond/pred_id:0\n\"deconv32/BatchNorm/cond/switch_f:0\n\037deconv32/BatchNorm/gamma/read:0\n%deconv32/BatchNorm/moving_mean/read:0\n)deconv32/BatchNorm/moving_variance/read:0\n\033deconv32/conv2d_transpose:0\022V\n\037deconv32/BatchNorm/gamma/read:0\0223deconv32/BatchNorm/cond/FusedBatchNorm_1/Switch_1:0\022U\n\036deconv32/BatchNorm/beta/read:0\0223deconv32/BatchNorm/cond/FusedBatchNorm_1/Switch_2:0\022\\\n%deconv32/BatchNorm/moving_mean/read:0\0223deconv32/BatchNorm/cond/FusedBatchNorm_1/Switch_3:0\022`\n)deconv32/BatchNorm/moving_variance/read:0\0223deconv32/BatchNorm/cond/FusedBatchNorm_1/Switch_4:0\022P\n\033deconv32/conv2d_transpose:0\0221deconv32/BatchNorm/cond/FusedBatchNorm_1/Switch:0"
        value: "\n#deconv32/BatchNorm/cond_1/cond_text\022#deconv32/BatchNorm/cond_1/pred_id:0\032$deconv32/BatchNorm/cond_1/switch_t:0 \001*\307\014\n!deconv32/BatchNorm/cond/Merge_1:0\n!deconv32/BatchNorm/cond/Merge_2:0\n2deconv32/BatchNorm/cond_1/AssignMovingAvg/Switch:1\n1deconv32/BatchNorm/cond_1/AssignMovingAvg/decay:0\n/deconv32/BatchNorm/cond_1/AssignMovingAvg/mul:0\n6deconv32/BatchNorm/cond_1/AssignMovingAvg/sub/Switch:1\n8deconv32/BatchNorm/cond_1/AssignMovingAvg/sub/Switch_1:1\n/deconv32/BatchNorm/cond_1/AssignMovingAvg/sub:0\n+deconv32/BatchNorm/cond_1/AssignMovingAvg:0\n4deconv32/BatchNorm/cond_1/AssignMovingAvg_1/Switch:1\n3deconv32/BatchNorm/cond_1/AssignMovingAvg_1/decay:0\n1deconv32/BatchNorm/cond_1/AssignMovingAvg_1/mul:0\n8deconv32/BatchNorm/cond_1/AssignMovingAvg_1/sub/Switch:1\n:deconv32/BatchNorm/cond_1/AssignMovingAvg_1/sub/Switch_1:1\n1deconv32/BatchNorm/cond_1/AssignMovingAvg_1/sub:0\n-deconv32/BatchNorm/cond_1/AssignMovingAvg_1:0\n#deconv32/BatchNorm/cond_1/pred_id:0\n$deconv32/BatchNorm/cond_1/switch_t:0\n%deconv32/BatchNorm/moving_mean/read:0\n deconv32/BatchNorm/moving_mean:0\n)deconv32/BatchNorm/moving_variance/read:0\n$deconv32/BatchNorm/moving_variance:0\022]\n!deconv32/BatchNorm/cond/Merge_1:0\0228deconv32/BatchNorm/cond_1/AssignMovingAvg/sub/Switch_1:1\022V\n deconv32/BatchNorm/moving_mean:0\0222deconv32/BatchNorm/cond_1/AssignMovingAvg/Switch:1\022\\\n$deconv32/BatchNorm/moving_variance:0\0224deconv32/BatchNorm/cond_1/AssignMovingAvg_1/Switch:1\022_\n!deconv32/BatchNorm/cond/Merge_2:0\022:deconv32/BatchNorm/cond_1/AssignMovingAvg_1/sub/Switch_1:1\022e\n)deconv32/BatchNorm/moving_variance/read:0\0228deconv32/BatchNorm/cond_1/AssignMovingAvg_1/sub/Switch:1\022_\n%deconv32/BatchNorm/moving_mean/read:0\0226deconv32/BatchNorm/cond_1/AssignMovingAvg/sub/Switch:1"
        value: "\n%deconv32/BatchNorm/cond_1/cond_text_1\022#deconv32/BatchNorm/cond_1/pred_id:0\032$deconv32/BatchNorm/cond_1/switch_f:0*\327\003\n$deconv32/BatchNorm/cond_1/Switch_1:0\n$deconv32/BatchNorm/cond_1/Switch_1:1\n$deconv32/BatchNorm/cond_1/Switch_2:0\n$deconv32/BatchNorm/cond_1/Switch_2:1\n#deconv32/BatchNorm/cond_1/pred_id:0\n$deconv32/BatchNorm/cond_1/switch_f:0\n%deconv32/BatchNorm/moving_mean/read:0\n)deconv32/BatchNorm/moving_variance/read:0\022M\n%deconv32/BatchNorm/moving_mean/read:0\022$deconv32/BatchNorm/cond_1/Switch_1:0\022Q\n)deconv32/BatchNorm/moving_variance/read:0\022$deconv32/BatchNorm/cond_1/Switch_2:0"
      }
    }
  }
  collection_def {
    key: "model_variables"
    value {
      node_list {
        value: "conv32/weights:0"
        value: "conv32/BatchNorm/beta:0"
        value: "conv32/BatchNorm/gamma:0"
        value: "conv32/BatchNorm/moving_mean:0"
        value: "conv32/BatchNorm/moving_variance:0"
        value: "conv16/weights:0"
        value: "conv16/BatchNorm/beta:0"
        value: "conv16/BatchNorm/gamma:0"
        value: "conv16/BatchNorm/moving_mean:0"
        value: "conv16/BatchNorm/moving_variance:0"
        value: "conv8/weights:0"
        value: "conv8/BatchNorm/beta:0"
        value: "conv8/BatchNorm/gamma:0"
        value: "conv8/BatchNorm/moving_mean:0"
        value: "conv8/BatchNorm/moving_variance:0"
        value: "conv4/weights:0"
        value: "conv4/BatchNorm/beta:0"
        value: "conv4/BatchNorm/gamma:0"
        value: "conv4/BatchNorm/moving_mean:0"
        value: "conv4/BatchNorm/moving_variance:0"
        value: "fc256/weights:0"
        value: "fc256/BatchNorm/beta:0"
        value: "fc256/BatchNorm/gamma:0"
        value: "fc256/BatchNorm/moving_mean:0"
        value: "fc256/BatchNorm/moving_variance:0"
        value: "deconv8/weights:0"
        value: "deconv8/BatchNorm/beta:0"
        value: "deconv8/BatchNorm/gamma:0"
        value: "deconv8/BatchNorm/moving_mean:0"
        value: "deconv8/BatchNorm/moving_variance:0"
        value: "deconv16/weights:0"
        value: "deconv16/BatchNorm/beta:0"
        value: "deconv16/BatchNorm/gamma:0"
        value: "deconv16/BatchNorm/moving_mean:0"
        value: "deconv16/BatchNorm/moving_variance:0"
        value: "deconv32/weights:0"
        value: "deconv32/BatchNorm/beta:0"
        value: "deconv32/BatchNorm/gamma:0"
        value: "deconv32/BatchNorm/moving_mean:0"
        value: "deconv32/BatchNorm/moving_variance:0"
        value: "deconv64/weights:0"
      }
    }
  }
  collection_def {
    key: "train_op"
    value {
      node_list {
        value: "Adam"
      }
    }
  }
  collection_def {
    key: "trainable_variables"
    value {
      bytes_list {
        value: "\n\020conv32/weights:0\022\025conv32/weights/Assign\032\025conv32/weights/read:0"
        value: "\n\027conv32/BatchNorm/beta:0\022\034conv32/BatchNorm/beta/Assign\032\034conv32/BatchNorm/beta/read:0"
        value: "\n\030conv32/BatchNorm/gamma:0\022\035conv32/BatchNorm/gamma/Assign\032\035conv32/BatchNorm/gamma/read:0"
        value: "\n\020conv16/weights:0\022\025conv16/weights/Assign\032\025conv16/weights/read:0"
        value: "\n\027conv16/BatchNorm/beta:0\022\034conv16/BatchNorm/beta/Assign\032\034conv16/BatchNorm/beta/read:0"
        value: "\n\030conv16/BatchNorm/gamma:0\022\035conv16/BatchNorm/gamma/Assign\032\035conv16/BatchNorm/gamma/read:0"
        value: "\n\017conv8/weights:0\022\024conv8/weights/Assign\032\024conv8/weights/read:0"
        value: "\n\026conv8/BatchNorm/beta:0\022\033conv8/BatchNorm/beta/Assign\032\033conv8/BatchNorm/beta/read:0"
        value: "\n\027conv8/BatchNorm/gamma:0\022\034conv8/BatchNorm/gamma/Assign\032\034conv8/BatchNorm/gamma/read:0"
        value: "\n\017conv4/weights:0\022\024conv4/weights/Assign\032\024conv4/weights/read:0"
        value: "\n\026conv4/BatchNorm/beta:0\022\033conv4/BatchNorm/beta/Assign\032\033conv4/BatchNorm/beta/read:0"
        value: "\n\027conv4/BatchNorm/gamma:0\022\034conv4/BatchNorm/gamma/Assign\032\034conv4/BatchNorm/gamma/read:0"
        value: "\n\017fc256/weights:0\022\024fc256/weights/Assign\032\024fc256/weights/read:0"
        value: "\n\026fc256/BatchNorm/beta:0\022\033fc256/BatchNorm/beta/Assign\032\033fc256/BatchNorm/beta/read:0"
        value: "\n\027fc256/BatchNorm/gamma:0\022\034fc256/BatchNorm/gamma/Assign\032\034fc256/BatchNorm/gamma/read:0"
        value: "\n\021deconv8/weights:0\022\026deconv8/weights/Assign\032\026deconv8/weights/read:0"
        value: "\n\030deconv8/BatchNorm/beta:0\022\035deconv8/BatchNorm/beta/Assign\032\035deconv8/BatchNorm/beta/read:0"
        value: "\n\031deconv8/BatchNorm/gamma:0\022\036deconv8/BatchNorm/gamma/Assign\032\036deconv8/BatchNorm/gamma/read:0"
        value: "\n\022deconv16/weights:0\022\027deconv16/weights/Assign\032\027deconv16/weights/read:0"
        value: "\n\031deconv16/BatchNorm/beta:0\022\036deconv16/BatchNorm/beta/Assign\032\036deconv16/BatchNorm/beta/read:0"
        value: "\n\032deconv16/BatchNorm/gamma:0\022\037deconv16/BatchNorm/gamma/Assign\032\037deconv16/BatchNorm/gamma/read:0"
        value: "\n\022deconv32/weights:0\022\027deconv32/weights/Assign\032\027deconv32/weights/read:0"
        value: "\n\031deconv32/BatchNorm/beta:0\022\036deconv32/BatchNorm/beta/Assign\032\036deconv32/BatchNorm/beta/read:0"
        value: "\n\032deconv32/BatchNorm/gamma:0\022\037deconv32/BatchNorm/gamma/Assign\032\037deconv32/BatchNorm/gamma/read:0"
        value: "\n\022deconv64/weights:0\022\027deconv64/weights/Assign\032\027deconv64/weights/read:0"
      }
    }
  }
  collection_def {
    key: "update_ops"
    value {
      node_list {
        value: "conv32/BatchNorm/cond_1/Merge:0"
        value: "conv32/BatchNorm/cond_1/Merge_1:0"
        value: "conv16/BatchNorm/cond_1/Merge:0"
        value: "conv16/BatchNorm/cond_1/Merge_1:0"
        value: "conv8/BatchNorm/cond_1/Merge:0"
        value: "conv8/BatchNorm/cond_1/Merge_1:0"
        value: "conv4/BatchNorm/cond_1/Merge:0"
        value: "conv4/BatchNorm/cond_1/Merge_1:0"
        value: "fc256/BatchNorm/cond_1/Merge:0"
        value: "fc256/BatchNorm/cond_1/Merge_1:0"
        value: "deconv8/BatchNorm/cond_1/Merge:0"
        value: "deconv8/BatchNorm/cond_1/Merge_1:0"
        value: "deconv16/BatchNorm/cond_1/Merge:0"
        value: "deconv16/BatchNorm/cond_1/Merge_1:0"
        value: "deconv32/BatchNorm/cond_1/Merge:0"
        value: "deconv32/BatchNorm/cond_1/Merge_1:0"
      }
    }
  }
  collection_def {
    key: "variables"
    value {
      bytes_list {
        value: "\n\020conv32/weights:0\022\025conv32/weights/Assign\032\025conv32/weights/read:0"
        value: "\n\027conv32/BatchNorm/beta:0\022\034conv32/BatchNorm/beta/Assign\032\034conv32/BatchNorm/beta/read:0"
        value: "\n\030conv32/BatchNorm/gamma:0\022\035conv32/BatchNorm/gamma/Assign\032\035conv32/BatchNorm/gamma/read:0"
        value: "\n\036conv32/BatchNorm/moving_mean:0\022#conv32/BatchNorm/moving_mean/Assign\032#conv32/BatchNorm/moving_mean/read:0"
        value: "\n\"conv32/BatchNorm/moving_variance:0\022\'conv32/BatchNorm/moving_variance/Assign\032\'conv32/BatchNorm/moving_variance/read:0"
        value: "\n\020conv16/weights:0\022\025conv16/weights/Assign\032\025conv16/weights/read:0"
        value: "\n\027conv16/BatchNorm/beta:0\022\034conv16/BatchNorm/beta/Assign\032\034conv16/BatchNorm/beta/read:0"
        value: "\n\030conv16/BatchNorm/gamma:0\022\035conv16/BatchNorm/gamma/Assign\032\035conv16/BatchNorm/gamma/read:0"
        value: "\n\036conv16/BatchNorm/moving_mean:0\022#conv16/BatchNorm/moving_mean/Assign\032#conv16/BatchNorm/moving_mean/read:0"
        value: "\n\"conv16/BatchNorm/moving_variance:0\022\'conv16/BatchNorm/moving_variance/Assign\032\'conv16/BatchNorm/moving_variance/read:0"
        value: "\n\017conv8/weights:0\022\024conv8/weights/Assign\032\024conv8/weights/read:0"
        value: "\n\026conv8/BatchNorm/beta:0\022\033conv8/BatchNorm/beta/Assign\032\033conv8/BatchNorm/beta/read:0"
        value: "\n\027conv8/BatchNorm/gamma:0\022\034conv8/BatchNorm/gamma/Assign\032\034conv8/BatchNorm/gamma/read:0"
        value: "\n\035conv8/BatchNorm/moving_mean:0\022\"conv8/BatchNorm/moving_mean/Assign\032\"conv8/BatchNorm/moving_mean/read:0"
        value: "\n!conv8/BatchNorm/moving_variance:0\022&conv8/BatchNorm/moving_variance/Assign\032&conv8/BatchNorm/moving_variance/read:0"
        value: "\n\017conv4/weights:0\022\024conv4/weights/Assign\032\024conv4/weights/read:0"
        value: "\n\026conv4/BatchNorm/beta:0\022\033conv4/BatchNorm/beta/Assign\032\033conv4/BatchNorm/beta/read:0"
        value: "\n\027conv4/BatchNorm/gamma:0\022\034conv4/BatchNorm/gamma/Assign\032\034conv4/BatchNorm/gamma/read:0"
        value: "\n\035conv4/BatchNorm/moving_mean:0\022\"conv4/BatchNorm/moving_mean/Assign\032\"conv4/BatchNorm/moving_mean/read:0"
        value: "\n!conv4/BatchNorm/moving_variance:0\022&conv4/BatchNorm/moving_variance/Assign\032&conv4/BatchNorm/moving_variance/read:0"
        value: "\n\017fc256/weights:0\022\024fc256/weights/Assign\032\024fc256/weights/read:0"
        value: "\n\026fc256/BatchNorm/beta:0\022\033fc256/BatchNorm/beta/Assign\032\033fc256/BatchNorm/beta/read:0"
        value: "\n\027fc256/BatchNorm/gamma:0\022\034fc256/BatchNorm/gamma/Assign\032\034fc256/BatchNorm/gamma/read:0"
        value: "\n\035fc256/BatchNorm/moving_mean:0\022\"fc256/BatchNorm/moving_mean/Assign\032\"fc256/BatchNorm/moving_mean/read:0"
        value: "\n!fc256/BatchNorm/moving_variance:0\022&fc256/BatchNorm/moving_variance/Assign\032&fc256/BatchNorm/moving_variance/read:0"
        value: "\n\021deconv8/weights:0\022\026deconv8/weights/Assign\032\026deconv8/weights/read:0"
        value: "\n\030deconv8/BatchNorm/beta:0\022\035deconv8/BatchNorm/beta/Assign\032\035deconv8/BatchNorm/beta/read:0"
        value: "\n\031deconv8/BatchNorm/gamma:0\022\036deconv8/BatchNorm/gamma/Assign\032\036deconv8/BatchNorm/gamma/read:0"
        value: "\n\037deconv8/BatchNorm/moving_mean:0\022$deconv8/BatchNorm/moving_mean/Assign\032$deconv8/BatchNorm/moving_mean/read:0"
        value: "\n#deconv8/BatchNorm/moving_variance:0\022(deconv8/BatchNorm/moving_variance/Assign\032(deconv8/BatchNorm/moving_variance/read:0"
        value: "\n\022deconv16/weights:0\022\027deconv16/weights/Assign\032\027deconv16/weights/read:0"
        value: "\n\031deconv16/BatchNorm/beta:0\022\036deconv16/BatchNorm/beta/Assign\032\036deconv16/BatchNorm/beta/read:0"
        value: "\n\032deconv16/BatchNorm/gamma:0\022\037deconv16/BatchNorm/gamma/Assign\032\037deconv16/BatchNorm/gamma/read:0"
        value: "\n deconv16/BatchNorm/moving_mean:0\022%deconv16/BatchNorm/moving_mean/Assign\032%deconv16/BatchNorm/moving_mean/read:0"
        value: "\n$deconv16/BatchNorm/moving_variance:0\022)deconv16/BatchNorm/moving_variance/Assign\032)deconv16/BatchNorm/moving_variance/read:0"
        value: "\n\022deconv32/weights:0\022\027deconv32/weights/Assign\032\027deconv32/weights/read:0"
        value: "\n\031deconv32/BatchNorm/beta:0\022\036deconv32/BatchNorm/beta/Assign\032\036deconv32/BatchNorm/beta/read:0"
        value: "\n\032deconv32/BatchNorm/gamma:0\022\037deconv32/BatchNorm/gamma/Assign\032\037deconv32/BatchNorm/gamma/read:0"
        value: "\n deconv32/BatchNorm/moving_mean:0\022%deconv32/BatchNorm/moving_mean/Assign\032%deconv32/BatchNorm/moving_mean/read:0"
        value: "\n$deconv32/BatchNorm/moving_variance:0\022)deconv32/BatchNorm/moving_variance/Assign\032)deconv32/BatchNorm/moving_variance/read:0"
        value: "\n\022deconv64/weights:0\022\027deconv64/weights/Assign\032\027deconv64/weights/read:0"
        value: "\n\rglobal_step:0\022\022global_step/Assign\032\022global_step/read:0"
        value: "\n\007epoch:0\022\014epoch/Assign\032\014epoch/read:0"
        value: "\n\rbeta1_power:0\022\022beta1_power/Assign\032\022beta1_power/read:0"
        value: "\n\rbeta2_power:0\022\022beta2_power/Assign\032\022beta2_power/read:0"
        value: "\n\025conv32/weights/Adam:0\022\032conv32/weights/Adam/Assign\032\032conv32/weights/Adam/read:0"
        value: "\n\027conv32/weights/Adam_1:0\022\034conv32/weights/Adam_1/Assign\032\034conv32/weights/Adam_1/read:0"
        value: "\n\034conv32/BatchNorm/beta/Adam:0\022!conv32/BatchNorm/beta/Adam/Assign\032!conv32/BatchNorm/beta/Adam/read:0"
        value: "\n\036conv32/BatchNorm/beta/Adam_1:0\022#conv32/BatchNorm/beta/Adam_1/Assign\032#conv32/BatchNorm/beta/Adam_1/read:0"
        value: "\n\035conv32/BatchNorm/gamma/Adam:0\022\"conv32/BatchNorm/gamma/Adam/Assign\032\"conv32/BatchNorm/gamma/Adam/read:0"
        value: "\n\037conv32/BatchNorm/gamma/Adam_1:0\022$conv32/BatchNorm/gamma/Adam_1/Assign\032$conv32/BatchNorm/gamma/Adam_1/read:0"
        value: "\n\025conv16/weights/Adam:0\022\032conv16/weights/Adam/Assign\032\032conv16/weights/Adam/read:0"
        value: "\n\027conv16/weights/Adam_1:0\022\034conv16/weights/Adam_1/Assign\032\034conv16/weights/Adam_1/read:0"
        value: "\n\034conv16/BatchNorm/beta/Adam:0\022!conv16/BatchNorm/beta/Adam/Assign\032!conv16/BatchNorm/beta/Adam/read:0"
        value: "\n\036conv16/BatchNorm/beta/Adam_1:0\022#conv16/BatchNorm/beta/Adam_1/Assign\032#conv16/BatchNorm/beta/Adam_1/read:0"
        value: "\n\035conv16/BatchNorm/gamma/Adam:0\022\"conv16/BatchNorm/gamma/Adam/Assign\032\"conv16/BatchNorm/gamma/Adam/read:0"
        value: "\n\037conv16/BatchNorm/gamma/Adam_1:0\022$conv16/BatchNorm/gamma/Adam_1/Assign\032$conv16/BatchNorm/gamma/Adam_1/read:0"
        value: "\n\024conv8/weights/Adam:0\022\031conv8/weights/Adam/Assign\032\031conv8/weights/Adam/read:0"
        value: "\n\026conv8/weights/Adam_1:0\022\033conv8/weights/Adam_1/Assign\032\033conv8/weights/Adam_1/read:0"
        value: "\n\033conv8/BatchNorm/beta/Adam:0\022 conv8/BatchNorm/beta/Adam/Assign\032 conv8/BatchNorm/beta/Adam/read:0"
        value: "\n\035conv8/BatchNorm/beta/Adam_1:0\022\"conv8/BatchNorm/beta/Adam_1/Assign\032\"conv8/BatchNorm/beta/Adam_1/read:0"
        value: "\n\034conv8/BatchNorm/gamma/Adam:0\022!conv8/BatchNorm/gamma/Adam/Assign\032!conv8/BatchNorm/gamma/Adam/read:0"
        value: "\n\036conv8/BatchNorm/gamma/Adam_1:0\022#conv8/BatchNorm/gamma/Adam_1/Assign\032#conv8/BatchNorm/gamma/Adam_1/read:0"
        value: "\n\024conv4/weights/Adam:0\022\031conv4/weights/Adam/Assign\032\031conv4/weights/Adam/read:0"
        value: "\n\026conv4/weights/Adam_1:0\022\033conv4/weights/Adam_1/Assign\032\033conv4/weights/Adam_1/read:0"
        value: "\n\033conv4/BatchNorm/beta/Adam:0\022 conv4/BatchNorm/beta/Adam/Assign\032 conv4/BatchNorm/beta/Adam/read:0"
        value: "\n\035conv4/BatchNorm/beta/Adam_1:0\022\"conv4/BatchNorm/beta/Adam_1/Assign\032\"conv4/BatchNorm/beta/Adam_1/read:0"
        value: "\n\034conv4/BatchNorm/gamma/Adam:0\022!conv4/BatchNorm/gamma/Adam/Assign\032!conv4/BatchNorm/gamma/Adam/read:0"
        value: "\n\036conv4/BatchNorm/gamma/Adam_1:0\022#conv4/BatchNorm/gamma/Adam_1/Assign\032#conv4/BatchNorm/gamma/Adam_1/read:0"
        value: "\n\024fc256/weights/Adam:0\022\031fc256/weights/Adam/Assign\032\031fc256/weights/Adam/read:0"
        value: "\n\026fc256/weights/Adam_1:0\022\033fc256/weights/Adam_1/Assign\032\033fc256/weights/Adam_1/read:0"
        value: "\n\033fc256/BatchNorm/beta/Adam:0\022 fc256/BatchNorm/beta/Adam/Assign\032 fc256/BatchNorm/beta/Adam/read:0"
        value: "\n\035fc256/BatchNorm/beta/Adam_1:0\022\"fc256/BatchNorm/beta/Adam_1/Assign\032\"fc256/BatchNorm/beta/Adam_1/read:0"
        value: "\n\034fc256/BatchNorm/gamma/Adam:0\022!fc256/BatchNorm/gamma/Adam/Assign\032!fc256/BatchNorm/gamma/Adam/read:0"
        value: "\n\036fc256/BatchNorm/gamma/Adam_1:0\022#fc256/BatchNorm/gamma/Adam_1/Assign\032#fc256/BatchNorm/gamma/Adam_1/read:0"
        value: "\n\026deconv8/weights/Adam:0\022\033deconv8/weights/Adam/Assign\032\033deconv8/weights/Adam/read:0"
        value: "\n\030deconv8/weights/Adam_1:0\022\035deconv8/weights/Adam_1/Assign\032\035deconv8/weights/Adam_1/read:0"
        value: "\n\035deconv8/BatchNorm/beta/Adam:0\022\"deconv8/BatchNorm/beta/Adam/Assign\032\"deconv8/BatchNorm/beta/Adam/read:0"
        value: "\n\037deconv8/BatchNorm/beta/Adam_1:0\022$deconv8/BatchNorm/beta/Adam_1/Assign\032$deconv8/BatchNorm/beta/Adam_1/read:0"
        value: "\n\036deconv8/BatchNorm/gamma/Adam:0\022#deconv8/BatchNorm/gamma/Adam/Assign\032#deconv8/BatchNorm/gamma/Adam/read:0"
        value: "\n deconv8/BatchNorm/gamma/Adam_1:0\022%deconv8/BatchNorm/gamma/Adam_1/Assign\032%deconv8/BatchNorm/gamma/Adam_1/read:0"
        value: "\n\027deconv16/weights/Adam:0\022\034deconv16/weights/Adam/Assign\032\034deconv16/weights/Adam/read:0"
        value: "\n\031deconv16/weights/Adam_1:0\022\036deconv16/weights/Adam_1/Assign\032\036deconv16/weights/Adam_1/read:0"
        value: "\n\036deconv16/BatchNorm/beta/Adam:0\022#deconv16/BatchNorm/beta/Adam/Assign\032#deconv16/BatchNorm/beta/Adam/read:0"
        value: "\n deconv16/BatchNorm/beta/Adam_1:0\022%deconv16/BatchNorm/beta/Adam_1/Assign\032%deconv16/BatchNorm/beta/Adam_1/read:0"
        value: "\n\037deconv16/BatchNorm/gamma/Adam:0\022$deconv16/BatchNorm/gamma/Adam/Assign\032$deconv16/BatchNorm/gamma/Adam/read:0"
        value: "\n!deconv16/BatchNorm/gamma/Adam_1:0\022&deconv16/BatchNorm/gamma/Adam_1/Assign\032&deconv16/BatchNorm/gamma/Adam_1/read:0"
        value: "\n\027deconv32/weights/Adam:0\022\034deconv32/weights/Adam/Assign\032\034deconv32/weights/Adam/read:0"
        value: "\n\031deconv32/weights/Adam_1:0\022\036deconv32/weights/Adam_1/Assign\032\036deconv32/weights/Adam_1/read:0"
        value: "\n\036deconv32/BatchNorm/beta/Adam:0\022#deconv32/BatchNorm/beta/Adam/Assign\032#deconv32/BatchNorm/beta/Adam/read:0"
        value: "\n deconv32/BatchNorm/beta/Adam_1:0\022%deconv32/BatchNorm/beta/Adam_1/Assign\032%deconv32/BatchNorm/beta/Adam_1/read:0"
        value: "\n\037deconv32/BatchNorm/gamma/Adam:0\022$deconv32/BatchNorm/gamma/Adam/Assign\032$deconv32/BatchNorm/gamma/Adam/read:0"
        value: "\n!deconv32/BatchNorm/gamma/Adam_1:0\022&deconv32/BatchNorm/gamma/Adam_1/Assign\032&deconv32/BatchNorm/gamma/Adam_1/read:0"
        value: "\n\027deconv64/weights/Adam:0\022\034deconv64/weights/Adam/Assign\032\034deconv64/weights/Adam/read:0"
        value: "\n\031deconv64/weights/Adam_1:0\022\036deconv64/weights/Adam_1/Assign\032\036deconv64/weights/Adam_1/read:0"
      }
    }
  }
}
